{
  "layers" : [
    {
      "name" : "pad_0",
      "weights" : {

      },
      "pad_pad_mode" : 0,
      "pad_t" : 3,
      "pad_r" : 3,
      "pad_b" : 3,
      "type" : "general_padding",
      "pad_fill_mode" : 2,
      "bottom" : "input",
      "pad_l" : 3,
      "debug_info" : "pad_0",
      "pad_value" : 0,
      "top" : "pad_0"
    },
    {
      "pad_r" : 0,
      "fused_relu" : 0,
      "fused_tanh" : 0,
      "debug_info" : "input.5",
      "pad_fill_mode" : 0,
      "pad_b" : 0,
      "pad_l" : 0,
      "top" : "input.5",
      "blob_weights" : 1,
      "K" : 3,
      "name" : "input.5",
      "has_batch_norm" : 0,
      "type" : "convolution",
      "n_groups" : 1,
      "pad_t" : 0,
      "has_biases" : 0,
      "C" : 32,
      "bottom" : "pad_0",
      "weights" : {

      },
      "Nx" : 7,
      "pad_mode" : 0,
      "pad_value" : 0,
      "Ny" : 7,
      "n_parallel" : 1
    },
    {
      "name" : "reshape_0",
      "weights" : {

      },
      "dst_w" : 256,
      "version" : 1,
      "dst_n" : 1,
      "dst_nd_rank" : 5,
      "type" : "reshape",
      "dst_h" : 256,
      "mode" : 0,
      "dynamic_shape" : false,
      "bottom" : "input.5",
      "debug_info" : "reshape_0",
      "dst_seq" : 1,
      "dst_k" : 32,
      "top" : "reshape_0"
    },
    {
      "bottom" : "reshape_0",
      "weights" : {

      },
      "mode" : 1,
      "debug_info" : "reduce_mean_0",
      "use_version" : 1,
      "top" : "reduce_mean_0",
      "type" : "reduce",
      "name" : "reduce_mean_0"
    },
    {
      "bottom" : "reshape_0,reduce_mean_0",
      "alpha" : 1,
      "operation" : 33,
      "weights" : {

      },
      "fused_relu" : 0,
      "debug_info" : "sub_0",
      "nd_mode" : true,
      "top" : "sub_0",
      "type" : "elementwise",
      "name" : "sub_0",
      "beta" : 0
    },
    {
      "bottom" : "sub_0",
      "alpha" : 2,
      "operation" : 13,
      "weights" : {

      },
      "fused_relu" : 0,
      "debug_info" : "square_0",
      "top" : "square_0",
      "type" : "elementwise",
      "name" : "square_0",
      "beta" : 0
    },
    {
      "bottom" : "square_0",
      "weights" : {

      },
      "mode" : 1,
      "debug_info" : "reduce_mean_2",
      "use_version" : 1,
      "top" : "reduce_mean_2",
      "type" : "reduce",
      "name" : "reduce_mean_2"
    },
    {
      "bottom" : "reduce_mean_2",
      "alpha" : 9.9999997473787516e-06,
      "operation" : 0,
      "weights" : {

      },
      "fused_relu" : 0,
      "debug_info" : "add_0",
      "top" : "add_0",
      "type" : "elementwise",
      "name" : "add_0",
      "beta" : 0
    },
    {
      "bottom" : "add_0",
      "alpha" : 1,
      "operation" : 11,
      "weights" : {

      },
      "fused_relu" : 0,
      "debug_info" : "sqrt_0",
      "top" : "sqrt_0",
      "type" : "elementwise",
      "name" : "sqrt_0",
      "beta" : 0
    },
    {
      "bottom" : "sub_0,sqrt_0",
      "alpha" : 1,
      "operation" : 102,
      "weights" : {

      },
      "fused_relu" : 0,
      "debug_info" : "real_div_0",
      "nd_mode" : true,
      "top" : "real_div_0",
      "type" : "elementwise",
      "name" : "real_div_0",
      "beta" : 0
    },
    {
      "name" : "reshape_1",
      "weights" : {

      },
      "dst_w" : 256,
      "version" : 1,
      "dst_n" : 1,
      "dst_nd_rank" : 4,
      "type" : "reshape",
      "dst_h" : 256,
      "mode" : 0,
      "dynamic_shape" : false,
      "bottom" : "real_div_0",
      "debug_info" : "reshape_1",
      "dst_seq" : 1,
      "dst_k" : 32,
      "top" : "reshape_1"
    },
    {
      "name" : "add_1",
      "bottom" : "reshape_1",
      "weights" : {

      },
      "debug_info" : "add_1",
      "top" : "add_1",
      "C" : 32,
      "blob_batchnorm_params" : 3,
      "type" : "batchnorm"
    },
    {
      "alpha" : 0.20000000298023224,
      "bottom" : "add_1",
      "weights" : {

      },
      "mode" : 2,
      "debug_info" : "input.9",
      "top" : "input.9",
      "type" : "activation",
      "name" : "input.9"
    },
    {
      "name" : "pad_1",
      "weights" : {

      },
      "pad_pad_mode" : 0,
      "pad_t" : 0,
      "pad_r" : 1,
      "pad_b" : 1,
      "type" : "general_padding",
      "pad_fill_mode" : 2,
      "bottom" : "input.9",
      "pad_l" : 0,
      "debug_info" : "pad_1",
      "pad_value" : 0,
      "top" : "pad_1"
    },
    {
      "pad_r" : 0,
      "fused_relu" : 0,
      "fused_tanh" : 0,
      "debug_info" : "input.13",
      "pad_fill_mode" : 0,
      "pad_b" : 0,
      "pad_l" : 0,
      "top" : "input.13",
      "blob_weights" : 5,
      "K" : 32,
      "stride_x" : 2,
      "name" : "input.13",
      "has_batch_norm" : 0,
      "type" : "convolution",
      "n_groups" : 1,
      "pad_t" : 0,
      "stride_y" : 2,
      "has_biases" : 0,
      "C" : 64,
      "bottom" : "pad_1",
      "weights" : {

      },
      "Nx" : 3,
      "pad_mode" : 0,
      "pad_value" : 0,
      "Ny" : 3,
      "n_parallel" : 1
    },
    {
      "name" : "reshape_4",
      "weights" : {

      },
      "dst_w" : 128,
      "version" : 1,
      "dst_n" : 1,
      "dst_nd_rank" : 5,
      "type" : "reshape",
      "dst_h" : 128,
      "mode" : 0,
      "dynamic_shape" : false,
      "bottom" : "input.13",
      "debug_info" : "reshape_4",
      "dst_seq" : 1,
      "dst_k" : 64,
      "top" : "reshape_4"
    },
    {
      "bottom" : "reshape_4",
      "weights" : {

      },
      "mode" : 1,
      "debug_info" : "reduce_mean_3",
      "use_version" : 1,
      "top" : "reduce_mean_3",
      "type" : "reduce",
      "name" : "reduce_mean_3"
    },
    {
      "bottom" : "reshape_4,reduce_mean_3",
      "alpha" : 1,
      "operation" : 33,
      "weights" : {

      },
      "fused_relu" : 0,
      "debug_info" : "sub_2",
      "nd_mode" : true,
      "top" : "sub_2",
      "type" : "elementwise",
      "name" : "sub_2",
      "beta" : 0
    },
    {
      "bottom" : "sub_2",
      "alpha" : 2,
      "operation" : 13,
      "weights" : {

      },
      "fused_relu" : 0,
      "debug_info" : "square_1",
      "top" : "square_1",
      "type" : "elementwise",
      "name" : "square_1",
      "beta" : 0
    },
    {
      "bottom" : "square_1",
      "weights" : {

      },
      "mode" : 1,
      "debug_info" : "reduce_mean_5",
      "use_version" : 1,
      "top" : "reduce_mean_5",
      "type" : "reduce",
      "name" : "reduce_mean_5"
    },
    {
      "bottom" : "reduce_mean_5",
      "alpha" : 9.9999997473787516e-06,
      "operation" : 0,
      "weights" : {

      },
      "fused_relu" : 0,
      "debug_info" : "add_2",
      "top" : "add_2",
      "type" : "elementwise",
      "name" : "add_2",
      "beta" : 0
    },
    {
      "bottom" : "add_2",
      "alpha" : 1,
      "operation" : 11,
      "weights" : {

      },
      "fused_relu" : 0,
      "debug_info" : "sqrt_1",
      "top" : "sqrt_1",
      "type" : "elementwise",
      "name" : "sqrt_1",
      "beta" : 0
    },
    {
      "bottom" : "sub_2,sqrt_1",
      "alpha" : 1,
      "operation" : 102,
      "weights" : {

      },
      "fused_relu" : 0,
      "debug_info" : "real_div_1",
      "nd_mode" : true,
      "top" : "real_div_1",
      "type" : "elementwise",
      "name" : "real_div_1",
      "beta" : 0
    },
    {
      "name" : "reshape_5",
      "weights" : {

      },
      "dst_w" : 128,
      "version" : 1,
      "dst_n" : 1,
      "dst_nd_rank" : 4,
      "type" : "reshape",
      "dst_h" : 128,
      "mode" : 0,
      "dynamic_shape" : false,
      "bottom" : "real_div_1",
      "debug_info" : "reshape_5",
      "dst_seq" : 1,
      "dst_k" : 64,
      "top" : "reshape_5"
    },
    {
      "name" : "add_3",
      "bottom" : "reshape_5",
      "weights" : {

      },
      "debug_info" : "add_3",
      "top" : "add_3",
      "C" : 64,
      "blob_batchnorm_params" : 7,
      "type" : "batchnorm"
    },
    {
      "alpha" : 0.20000000298023224,
      "bottom" : "add_3",
      "weights" : {

      },
      "mode" : 2,
      "debug_info" : "input.17",
      "top" : "input.17",
      "type" : "activation",
      "name" : "input.17"
    },
    {
      "name" : "pad_2",
      "weights" : {

      },
      "pad_pad_mode" : 0,
      "pad_t" : 1,
      "pad_r" : 1,
      "pad_b" : 1,
      "type" : "general_padding",
      "pad_fill_mode" : 2,
      "bottom" : "input.17",
      "pad_l" : 1,
      "debug_info" : "pad_2",
      "pad_value" : 0,
      "top" : "pad_2"
    },
    {
      "pad_r" : 0,
      "fused_relu" : 0,
      "fused_tanh" : 0,
      "debug_info" : "input.21",
      "pad_fill_mode" : 0,
      "pad_b" : 0,
      "pad_l" : 0,
      "top" : "input.21",
      "blob_weights" : 9,
      "K" : 64,
      "name" : "input.21",
      "has_batch_norm" : 0,
      "type" : "convolution",
      "n_groups" : 1,
      "pad_t" : 0,
      "has_biases" : 0,
      "C" : 64,
      "bottom" : "pad_2",
      "weights" : {

      },
      "Nx" : 3,
      "pad_mode" : 0,
      "pad_value" : 0,
      "Ny" : 3,
      "n_parallel" : 1
    },
    {
      "name" : "reshape_8",
      "weights" : {

      },
      "dst_w" : 128,
      "version" : 1,
      "dst_n" : 1,
      "dst_nd_rank" : 5,
      "type" : "reshape",
      "dst_h" : 128,
      "mode" : 0,
      "dynamic_shape" : false,
      "bottom" : "input.21",
      "debug_info" : "reshape_8",
      "dst_seq" : 1,
      "dst_k" : 64,
      "top" : "reshape_8"
    },
    {
      "bottom" : "reshape_8",
      "weights" : {

      },
      "mode" : 1,
      "debug_info" : "reduce_mean_6",
      "use_version" : 1,
      "top" : "reduce_mean_6",
      "type" : "reduce",
      "name" : "reduce_mean_6"
    },
    {
      "bottom" : "reshape_8,reduce_mean_6",
      "alpha" : 1,
      "operation" : 33,
      "weights" : {

      },
      "fused_relu" : 0,
      "debug_info" : "sub_4",
      "nd_mode" : true,
      "top" : "sub_4",
      "type" : "elementwise",
      "name" : "sub_4",
      "beta" : 0
    },
    {
      "bottom" : "sub_4",
      "alpha" : 2,
      "operation" : 13,
      "weights" : {

      },
      "fused_relu" : 0,
      "debug_info" : "square_2",
      "top" : "square_2",
      "type" : "elementwise",
      "name" : "square_2",
      "beta" : 0
    },
    {
      "bottom" : "square_2",
      "weights" : {

      },
      "mode" : 1,
      "debug_info" : "reduce_mean_8",
      "use_version" : 1,
      "top" : "reduce_mean_8",
      "type" : "reduce",
      "name" : "reduce_mean_8"
    },
    {
      "bottom" : "reduce_mean_8",
      "alpha" : 9.9999997473787516e-06,
      "operation" : 0,
      "weights" : {

      },
      "fused_relu" : 0,
      "debug_info" : "add_4",
      "top" : "add_4",
      "type" : "elementwise",
      "name" : "add_4",
      "beta" : 0
    },
    {
      "bottom" : "add_4",
      "alpha" : 1,
      "operation" : 11,
      "weights" : {

      },
      "fused_relu" : 0,
      "debug_info" : "sqrt_2",
      "top" : "sqrt_2",
      "type" : "elementwise",
      "name" : "sqrt_2",
      "beta" : 0
    },
    {
      "bottom" : "sub_4,sqrt_2",
      "alpha" : 1,
      "operation" : 102,
      "weights" : {

      },
      "fused_relu" : 0,
      "debug_info" : "real_div_2",
      "nd_mode" : true,
      "top" : "real_div_2",
      "type" : "elementwise",
      "name" : "real_div_2",
      "beta" : 0
    },
    {
      "name" : "reshape_9",
      "weights" : {

      },
      "dst_w" : 128,
      "version" : 1,
      "dst_n" : 1,
      "dst_nd_rank" : 4,
      "type" : "reshape",
      "dst_h" : 128,
      "mode" : 0,
      "dynamic_shape" : false,
      "bottom" : "real_div_2",
      "debug_info" : "reshape_9",
      "dst_seq" : 1,
      "dst_k" : 64,
      "top" : "reshape_9"
    },
    {
      "name" : "add_5",
      "bottom" : "reshape_9",
      "weights" : {

      },
      "debug_info" : "add_5",
      "top" : "add_5",
      "C" : 64,
      "blob_batchnorm_params" : 11,
      "type" : "batchnorm"
    },
    {
      "alpha" : 0.20000000298023224,
      "bottom" : "add_5",
      "weights" : {

      },
      "mode" : 2,
      "debug_info" : "out.1",
      "top" : "out.1",
      "type" : "activation",
      "name" : "out.1"
    },
    {
      "name" : "pad_3",
      "weights" : {

      },
      "pad_pad_mode" : 0,
      "pad_t" : 0,
      "pad_r" : 1,
      "pad_b" : 1,
      "type" : "general_padding",
      "pad_fill_mode" : 2,
      "bottom" : "out.1",
      "pad_l" : 0,
      "debug_info" : "pad_3",
      "pad_value" : 0,
      "top" : "pad_3"
    },
    {
      "pad_r" : 0,
      "fused_relu" : 0,
      "fused_tanh" : 0,
      "debug_info" : "input.27",
      "pad_fill_mode" : 0,
      "pad_b" : 0,
      "pad_l" : 0,
      "top" : "input.27",
      "blob_weights" : 13,
      "K" : 64,
      "stride_x" : 2,
      "name" : "input.27",
      "has_batch_norm" : 0,
      "type" : "convolution",
      "n_groups" : 1,
      "pad_t" : 0,
      "stride_y" : 2,
      "has_biases" : 0,
      "C" : 128,
      "bottom" : "pad_3",
      "weights" : {

      },
      "Nx" : 3,
      "pad_mode" : 0,
      "pad_value" : 0,
      "Ny" : 3,
      "n_parallel" : 1
    },
    {
      "name" : "reshape_12",
      "weights" : {

      },
      "dst_w" : 64,
      "version" : 1,
      "dst_n" : 1,
      "dst_nd_rank" : 5,
      "type" : "reshape",
      "dst_h" : 64,
      "mode" : 0,
      "dynamic_shape" : false,
      "bottom" : "input.27",
      "debug_info" : "reshape_12",
      "dst_seq" : 1,
      "dst_k" : 128,
      "top" : "reshape_12"
    },
    {
      "bottom" : "reshape_12",
      "weights" : {

      },
      "mode" : 1,
      "debug_info" : "reduce_mean_9",
      "use_version" : 1,
      "top" : "reduce_mean_9",
      "type" : "reduce",
      "name" : "reduce_mean_9"
    },
    {
      "bottom" : "reshape_12,reduce_mean_9",
      "alpha" : 1,
      "operation" : 33,
      "weights" : {

      },
      "fused_relu" : 0,
      "debug_info" : "sub_6",
      "nd_mode" : true,
      "top" : "sub_6",
      "type" : "elementwise",
      "name" : "sub_6",
      "beta" : 0
    },
    {
      "bottom" : "sub_6",
      "alpha" : 2,
      "operation" : 13,
      "weights" : {

      },
      "fused_relu" : 0,
      "debug_info" : "square_3",
      "top" : "square_3",
      "type" : "elementwise",
      "name" : "square_3",
      "beta" : 0
    },
    {
      "bottom" : "square_3",
      "weights" : {

      },
      "mode" : 1,
      "debug_info" : "reduce_mean_11",
      "use_version" : 1,
      "top" : "reduce_mean_11",
      "type" : "reduce",
      "name" : "reduce_mean_11"
    },
    {
      "bottom" : "reduce_mean_11",
      "alpha" : 9.9999997473787516e-06,
      "operation" : 0,
      "weights" : {

      },
      "fused_relu" : 0,
      "debug_info" : "add_6",
      "top" : "add_6",
      "type" : "elementwise",
      "name" : "add_6",
      "beta" : 0
    },
    {
      "bottom" : "add_6",
      "alpha" : 1,
      "operation" : 11,
      "weights" : {

      },
      "fused_relu" : 0,
      "debug_info" : "sqrt_3",
      "top" : "sqrt_3",
      "type" : "elementwise",
      "name" : "sqrt_3",
      "beta" : 0
    },
    {
      "bottom" : "sub_6,sqrt_3",
      "alpha" : 1,
      "operation" : 102,
      "weights" : {

      },
      "fused_relu" : 0,
      "debug_info" : "real_div_3",
      "nd_mode" : true,
      "top" : "real_div_3",
      "type" : "elementwise",
      "name" : "real_div_3",
      "beta" : 0
    },
    {
      "name" : "reshape_13",
      "weights" : {

      },
      "dst_w" : 64,
      "version" : 1,
      "dst_n" : 1,
      "dst_nd_rank" : 4,
      "type" : "reshape",
      "dst_h" : 64,
      "mode" : 0,
      "dynamic_shape" : false,
      "bottom" : "real_div_3",
      "debug_info" : "reshape_13",
      "dst_seq" : 1,
      "dst_k" : 128,
      "top" : "reshape_13"
    },
    {
      "name" : "add_7",
      "bottom" : "reshape_13",
      "weights" : {

      },
      "debug_info" : "add_7",
      "top" : "add_7",
      "C" : 128,
      "blob_batchnorm_params" : 15,
      "type" : "batchnorm"
    },
    {
      "alpha" : 0.20000000298023224,
      "bottom" : "add_7",
      "weights" : {

      },
      "mode" : 2,
      "debug_info" : "input.31",
      "top" : "input.31",
      "type" : "activation",
      "name" : "input.31"
    },
    {
      "name" : "pad_4",
      "weights" : {

      },
      "pad_pad_mode" : 0,
      "pad_t" : 1,
      "pad_r" : 1,
      "pad_b" : 1,
      "type" : "general_padding",
      "pad_fill_mode" : 2,
      "bottom" : "input.31",
      "pad_l" : 1,
      "debug_info" : "pad_4",
      "pad_value" : 0,
      "top" : "pad_4"
    },
    {
      "pad_r" : 0,
      "fused_relu" : 0,
      "fused_tanh" : 0,
      "debug_info" : "input.35",
      "pad_fill_mode" : 0,
      "pad_b" : 0,
      "pad_l" : 0,
      "top" : "input.35",
      "blob_weights" : 17,
      "K" : 128,
      "name" : "input.35",
      "has_batch_norm" : 0,
      "type" : "convolution",
      "n_groups" : 1,
      "pad_t" : 0,
      "has_biases" : 0,
      "C" : 128,
      "bottom" : "pad_4",
      "weights" : {

      },
      "Nx" : 3,
      "pad_mode" : 0,
      "pad_value" : 0,
      "Ny" : 3,
      "n_parallel" : 1
    },
    {
      "name" : "reshape_16",
      "weights" : {

      },
      "dst_w" : 64,
      "version" : 1,
      "dst_n" : 1,
      "dst_nd_rank" : 5,
      "type" : "reshape",
      "dst_h" : 64,
      "mode" : 0,
      "dynamic_shape" : false,
      "bottom" : "input.35",
      "debug_info" : "reshape_16",
      "dst_seq" : 1,
      "dst_k" : 128,
      "top" : "reshape_16"
    },
    {
      "bottom" : "reshape_16",
      "weights" : {

      },
      "mode" : 1,
      "debug_info" : "reduce_mean_12",
      "use_version" : 1,
      "top" : "reduce_mean_12",
      "type" : "reduce",
      "name" : "reduce_mean_12"
    },
    {
      "bottom" : "reshape_16,reduce_mean_12",
      "alpha" : 1,
      "operation" : 33,
      "weights" : {

      },
      "fused_relu" : 0,
      "debug_info" : "sub_8",
      "nd_mode" : true,
      "top" : "sub_8",
      "type" : "elementwise",
      "name" : "sub_8",
      "beta" : 0
    },
    {
      "bottom" : "sub_8",
      "alpha" : 2,
      "operation" : 13,
      "weights" : {

      },
      "fused_relu" : 0,
      "debug_info" : "square_4",
      "top" : "square_4",
      "type" : "elementwise",
      "name" : "square_4",
      "beta" : 0
    },
    {
      "bottom" : "square_4",
      "weights" : {

      },
      "mode" : 1,
      "debug_info" : "reduce_mean_14",
      "use_version" : 1,
      "top" : "reduce_mean_14",
      "type" : "reduce",
      "name" : "reduce_mean_14"
    },
    {
      "bottom" : "reduce_mean_14",
      "alpha" : 9.9999997473787516e-06,
      "operation" : 0,
      "weights" : {

      },
      "fused_relu" : 0,
      "debug_info" : "add_8",
      "top" : "add_8",
      "type" : "elementwise",
      "name" : "add_8",
      "beta" : 0
    },
    {
      "bottom" : "add_8",
      "alpha" : 1,
      "operation" : 11,
      "weights" : {

      },
      "fused_relu" : 0,
      "debug_info" : "sqrt_4",
      "top" : "sqrt_4",
      "type" : "elementwise",
      "name" : "sqrt_4",
      "beta" : 0
    },
    {
      "bottom" : "sub_8,sqrt_4",
      "alpha" : 1,
      "operation" : 102,
      "weights" : {

      },
      "fused_relu" : 0,
      "debug_info" : "real_div_4",
      "nd_mode" : true,
      "top" : "real_div_4",
      "type" : "elementwise",
      "name" : "real_div_4",
      "beta" : 0
    },
    {
      "name" : "reshape_17",
      "weights" : {

      },
      "dst_w" : 64,
      "version" : 1,
      "dst_n" : 1,
      "dst_nd_rank" : 4,
      "type" : "reshape",
      "dst_h" : 64,
      "mode" : 0,
      "dynamic_shape" : false,
      "bottom" : "real_div_4",
      "debug_info" : "reshape_17",
      "dst_seq" : 1,
      "dst_k" : 128,
      "top" : "reshape_17"
    },
    {
      "name" : "add_9",
      "bottom" : "reshape_17",
      "weights" : {

      },
      "debug_info" : "add_9",
      "top" : "add_9",
      "C" : 128,
      "blob_batchnorm_params" : 19,
      "type" : "batchnorm"
    },
    {
      "alpha" : 0.20000000298023224,
      "bottom" : "add_9",
      "weights" : {

      },
      "mode" : 2,
      "debug_info" : "input.39",
      "top" : "input.39",
      "type" : "activation",
      "name" : "input.39"
    },
    {
      "name" : "pad_5",
      "weights" : {

      },
      "pad_pad_mode" : 0,
      "pad_t" : 1,
      "pad_r" : 1,
      "pad_b" : 1,
      "type" : "general_padding",
      "pad_fill_mode" : 2,
      "bottom" : "input.39",
      "pad_l" : 1,
      "debug_info" : "pad_5",
      "pad_value" : 0,
      "top" : "pad_5"
    },
    {
      "pad_r" : 0,
      "fused_relu" : 0,
      "fused_tanh" : 0,
      "debug_info" : "input.43",
      "pad_fill_mode" : 0,
      "pad_b" : 0,
      "pad_l" : 0,
      "top" : "input.43",
      "blob_weights" : 21,
      "K" : 128,
      "name" : "input.43",
      "has_batch_norm" : 0,
      "type" : "convolution",
      "n_groups" : 1,
      "pad_t" : 0,
      "has_biases" : 0,
      "C" : 128,
      "bottom" : "pad_5",
      "weights" : {

      },
      "Nx" : 3,
      "pad_mode" : 0,
      "pad_value" : 0,
      "Ny" : 3,
      "n_parallel" : 1
    },
    {
      "name" : "reshape_20",
      "weights" : {

      },
      "dst_w" : 64,
      "version" : 1,
      "dst_n" : 1,
      "dst_nd_rank" : 5,
      "type" : "reshape",
      "dst_h" : 64,
      "mode" : 0,
      "dynamic_shape" : false,
      "bottom" : "input.43",
      "debug_info" : "reshape_20",
      "dst_seq" : 1,
      "dst_k" : 128,
      "top" : "reshape_20"
    },
    {
      "bottom" : "reshape_20",
      "weights" : {

      },
      "mode" : 1,
      "debug_info" : "reduce_mean_15",
      "use_version" : 1,
      "top" : "reduce_mean_15",
      "type" : "reduce",
      "name" : "reduce_mean_15"
    },
    {
      "bottom" : "reshape_20,reduce_mean_15",
      "alpha" : 1,
      "operation" : 33,
      "weights" : {

      },
      "fused_relu" : 0,
      "debug_info" : "sub_10",
      "nd_mode" : true,
      "top" : "sub_10",
      "type" : "elementwise",
      "name" : "sub_10",
      "beta" : 0
    },
    {
      "bottom" : "sub_10",
      "alpha" : 2,
      "operation" : 13,
      "weights" : {

      },
      "fused_relu" : 0,
      "debug_info" : "square_5",
      "top" : "square_5",
      "type" : "elementwise",
      "name" : "square_5",
      "beta" : 0
    },
    {
      "bottom" : "square_5",
      "weights" : {

      },
      "mode" : 1,
      "debug_info" : "reduce_mean_17",
      "use_version" : 1,
      "top" : "reduce_mean_17",
      "type" : "reduce",
      "name" : "reduce_mean_17"
    },
    {
      "bottom" : "reduce_mean_17",
      "alpha" : 9.9999997473787516e-06,
      "operation" : 0,
      "weights" : {

      },
      "fused_relu" : 0,
      "debug_info" : "add_10",
      "top" : "add_10",
      "type" : "elementwise",
      "name" : "add_10",
      "beta" : 0
    },
    {
      "bottom" : "add_10",
      "alpha" : 1,
      "operation" : 11,
      "weights" : {

      },
      "fused_relu" : 0,
      "debug_info" : "sqrt_5",
      "top" : "sqrt_5",
      "type" : "elementwise",
      "name" : "sqrt_5",
      "beta" : 0
    },
    {
      "bottom" : "sub_10,sqrt_5",
      "alpha" : 1,
      "operation" : 102,
      "weights" : {

      },
      "fused_relu" : 0,
      "debug_info" : "real_div_5",
      "nd_mode" : true,
      "top" : "real_div_5",
      "type" : "elementwise",
      "name" : "real_div_5",
      "beta" : 0
    },
    {
      "name" : "reshape_21",
      "weights" : {

      },
      "dst_w" : 64,
      "version" : 1,
      "dst_n" : 1,
      "dst_nd_rank" : 4,
      "type" : "reshape",
      "dst_h" : 64,
      "mode" : 0,
      "dynamic_shape" : false,
      "bottom" : "real_div_5",
      "debug_info" : "reshape_21",
      "dst_seq" : 1,
      "dst_k" : 128,
      "top" : "reshape_21"
    },
    {
      "name" : "add_11",
      "bottom" : "reshape_21",
      "weights" : {

      },
      "debug_info" : "add_11",
      "top" : "add_11",
      "C" : 128,
      "blob_batchnorm_params" : 23,
      "type" : "batchnorm"
    },
    {
      "alpha" : 0.20000000298023224,
      "bottom" : "add_11",
      "weights" : {

      },
      "mode" : 2,
      "debug_info" : "input.47",
      "top" : "input.47",
      "type" : "activation",
      "name" : "input.47"
    },
    {
      "pad_r" : 0,
      "fused_relu" : 0,
      "fused_tanh" : 0,
      "debug_info" : "input.51",
      "pad_fill_mode" : 0,
      "pad_b" : 0,
      "pad_l" : 0,
      "top" : "input.51",
      "blob_weights" : 25,
      "K" : 128,
      "name" : "input.51",
      "has_batch_norm" : 0,
      "type" : "convolution",
      "n_groups" : 1,
      "pad_t" : 0,
      "has_biases" : 0,
      "C" : 256,
      "bottom" : "input.47",
      "weights" : {

      },
      "Nx" : 1,
      "pad_mode" : 0,
      "pad_value" : 0,
      "Ny" : 1,
      "n_parallel" : 1
    },
    {
      "name" : "reshape_24",
      "weights" : {

      },
      "dst_w" : 64,
      "version" : 1,
      "dst_n" : 1,
      "dst_nd_rank" : 5,
      "type" : "reshape",
      "dst_h" : 64,
      "mode" : 0,
      "dynamic_shape" : false,
      "bottom" : "input.51",
      "debug_info" : "reshape_24",
      "dst_seq" : 1,
      "dst_k" : 256,
      "top" : "reshape_24"
    },
    {
      "bottom" : "reshape_24",
      "weights" : {

      },
      "mode" : 1,
      "debug_info" : "reduce_mean_18",
      "use_version" : 1,
      "top" : "reduce_mean_18",
      "type" : "reduce",
      "name" : "reduce_mean_18"
    },
    {
      "bottom" : "reshape_24,reduce_mean_18",
      "alpha" : 1,
      "operation" : 33,
      "weights" : {

      },
      "fused_relu" : 0,
      "debug_info" : "sub_12",
      "nd_mode" : true,
      "top" : "sub_12",
      "type" : "elementwise",
      "name" : "sub_12",
      "beta" : 0
    },
    {
      "bottom" : "sub_12",
      "alpha" : 2,
      "operation" : 13,
      "weights" : {

      },
      "fused_relu" : 0,
      "debug_info" : "square_6",
      "top" : "square_6",
      "type" : "elementwise",
      "name" : "square_6",
      "beta" : 0
    },
    {
      "bottom" : "square_6",
      "weights" : {

      },
      "mode" : 1,
      "debug_info" : "reduce_mean_20",
      "use_version" : 1,
      "top" : "reduce_mean_20",
      "type" : "reduce",
      "name" : "reduce_mean_20"
    },
    {
      "bottom" : "reduce_mean_20",
      "alpha" : 9.9999997473787516e-06,
      "operation" : 0,
      "weights" : {

      },
      "fused_relu" : 0,
      "debug_info" : "add_12",
      "top" : "add_12",
      "type" : "elementwise",
      "name" : "add_12",
      "beta" : 0
    },
    {
      "bottom" : "add_12",
      "alpha" : 1,
      "operation" : 11,
      "weights" : {

      },
      "fused_relu" : 0,
      "debug_info" : "sqrt_6",
      "top" : "sqrt_6",
      "type" : "elementwise",
      "name" : "sqrt_6",
      "beta" : 0
    },
    {
      "bottom" : "sub_12,sqrt_6",
      "alpha" : 1,
      "operation" : 102,
      "weights" : {

      },
      "fused_relu" : 0,
      "debug_info" : "real_div_6",
      "nd_mode" : true,
      "top" : "real_div_6",
      "type" : "elementwise",
      "name" : "real_div_6",
      "beta" : 0
    },
    {
      "name" : "reshape_25",
      "weights" : {

      },
      "dst_w" : 64,
      "version" : 1,
      "dst_n" : 1,
      "dst_nd_rank" : 4,
      "type" : "reshape",
      "dst_h" : 64,
      "mode" : 0,
      "dynamic_shape" : false,
      "bottom" : "real_div_6",
      "debug_info" : "reshape_25",
      "dst_seq" : 1,
      "dst_k" : 256,
      "top" : "reshape_25"
    },
    {
      "name" : "add_13",
      "bottom" : "reshape_25",
      "weights" : {

      },
      "debug_info" : "add_13",
      "top" : "add_13",
      "C" : 256,
      "blob_batchnorm_params" : 27,
      "type" : "batchnorm"
    },
    {
      "alpha" : 0.20000000298023224,
      "bottom" : "add_13",
      "weights" : {

      },
      "mode" : 2,
      "debug_info" : "input.55",
      "top" : "input.55",
      "type" : "activation",
      "name" : "input.55"
    },
    {
      "name" : "pad_7",
      "weights" : {

      },
      "pad_pad_mode" : 0,
      "pad_t" : 1,
      "pad_r" : 1,
      "pad_b" : 1,
      "type" : "general_padding",
      "pad_fill_mode" : 2,
      "bottom" : "input.55",
      "pad_l" : 1,
      "debug_info" : "pad_7",
      "pad_value" : 0,
      "top" : "pad_7"
    },
    {
      "pad_r" : 0,
      "fused_relu" : 0,
      "fused_tanh" : 0,
      "debug_info" : "input.59",
      "pad_fill_mode" : 0,
      "pad_b" : 0,
      "pad_l" : 0,
      "top" : "input.59",
      "blob_weights" : 31,
      "K" : 256,
      "blob_biases" : 29,
      "name" : "input.59",
      "has_batch_norm" : 0,
      "type" : "convolution",
      "n_groups" : 256,
      "pad_t" : 0,
      "has_biases" : 1,
      "C" : 256,
      "bottom" : "pad_7",
      "weights" : {

      },
      "Nx" : 3,
      "pad_mode" : 0,
      "pad_value" : 0,
      "Ny" : 3,
      "n_parallel" : 1
    },
    {
      "name" : "reshape_28",
      "weights" : {

      },
      "dst_w" : 64,
      "version" : 1,
      "dst_n" : 1,
      "dst_nd_rank" : 5,
      "type" : "reshape",
      "dst_h" : 64,
      "mode" : 0,
      "dynamic_shape" : false,
      "bottom" : "input.59",
      "debug_info" : "reshape_28",
      "dst_seq" : 1,
      "dst_k" : 256,
      "top" : "reshape_28"
    },
    {
      "bottom" : "reshape_28",
      "weights" : {

      },
      "mode" : 1,
      "debug_info" : "reduce_mean_21",
      "use_version" : 1,
      "top" : "reduce_mean_21",
      "type" : "reduce",
      "name" : "reduce_mean_21"
    },
    {
      "bottom" : "reshape_28,reduce_mean_21",
      "alpha" : 1,
      "operation" : 33,
      "weights" : {

      },
      "fused_relu" : 0,
      "debug_info" : "sub_14",
      "nd_mode" : true,
      "top" : "sub_14",
      "type" : "elementwise",
      "name" : "sub_14",
      "beta" : 0
    },
    {
      "bottom" : "sub_14",
      "alpha" : 2,
      "operation" : 13,
      "weights" : {

      },
      "fused_relu" : 0,
      "debug_info" : "square_7",
      "top" : "square_7",
      "type" : "elementwise",
      "name" : "square_7",
      "beta" : 0
    },
    {
      "bottom" : "square_7",
      "weights" : {

      },
      "mode" : 1,
      "debug_info" : "reduce_mean_23",
      "use_version" : 1,
      "top" : "reduce_mean_23",
      "type" : "reduce",
      "name" : "reduce_mean_23"
    },
    {
      "bottom" : "reduce_mean_23",
      "alpha" : 9.9999997473787516e-06,
      "operation" : 0,
      "weights" : {

      },
      "fused_relu" : 0,
      "debug_info" : "add_14",
      "top" : "add_14",
      "type" : "elementwise",
      "name" : "add_14",
      "beta" : 0
    },
    {
      "bottom" : "add_14",
      "alpha" : 1,
      "operation" : 11,
      "weights" : {

      },
      "fused_relu" : 0,
      "debug_info" : "sqrt_7",
      "top" : "sqrt_7",
      "type" : "elementwise",
      "name" : "sqrt_7",
      "beta" : 0
    },
    {
      "bottom" : "sub_14,sqrt_7",
      "alpha" : 1,
      "operation" : 102,
      "weights" : {

      },
      "fused_relu" : 0,
      "debug_info" : "real_div_7",
      "nd_mode" : true,
      "top" : "real_div_7",
      "type" : "elementwise",
      "name" : "real_div_7",
      "beta" : 0
    },
    {
      "name" : "reshape_29",
      "weights" : {

      },
      "dst_w" : 64,
      "version" : 1,
      "dst_n" : 1,
      "dst_nd_rank" : 4,
      "type" : "reshape",
      "dst_h" : 64,
      "mode" : 0,
      "dynamic_shape" : false,
      "bottom" : "real_div_7",
      "debug_info" : "reshape_29",
      "dst_seq" : 1,
      "dst_k" : 256,
      "top" : "reshape_29"
    },
    {
      "name" : "add_15",
      "bottom" : "reshape_29",
      "weights" : {

      },
      "debug_info" : "add_15",
      "top" : "add_15",
      "C" : 256,
      "blob_batchnorm_params" : 33,
      "type" : "batchnorm"
    },
    {
      "alpha" : 0.20000000298023224,
      "bottom" : "add_15",
      "weights" : {

      },
      "mode" : 2,
      "debug_info" : "input.63",
      "top" : "input.63",
      "type" : "activation",
      "name" : "input.63"
    },
    {
      "pad_r" : 0,
      "fused_relu" : 0,
      "fused_tanh" : 0,
      "debug_info" : "input.65",
      "pad_fill_mode" : 0,
      "pad_b" : 0,
      "pad_l" : 0,
      "top" : "input.65",
      "blob_weights" : 35,
      "K" : 256,
      "name" : "input.65",
      "has_batch_norm" : 0,
      "type" : "convolution",
      "n_groups" : 1,
      "pad_t" : 0,
      "has_biases" : 0,
      "C" : 256,
      "bottom" : "input.63",
      "weights" : {

      },
      "Nx" : 1,
      "pad_mode" : 0,
      "pad_value" : 0,
      "Ny" : 1,
      "n_parallel" : 1
    },
    {
      "name" : "reshape_32",
      "weights" : {

      },
      "dst_w" : 64,
      "version" : 1,
      "dst_n" : 1,
      "dst_nd_rank" : 5,
      "type" : "reshape",
      "dst_h" : 64,
      "mode" : 0,
      "dynamic_shape" : false,
      "bottom" : "input.65",
      "debug_info" : "reshape_32",
      "dst_seq" : 1,
      "dst_k" : 256,
      "top" : "reshape_32"
    },
    {
      "bottom" : "reshape_32",
      "weights" : {

      },
      "mode" : 1,
      "debug_info" : "reduce_mean_24",
      "use_version" : 1,
      "top" : "reduce_mean_24",
      "type" : "reduce",
      "name" : "reduce_mean_24"
    },
    {
      "bottom" : "reshape_32,reduce_mean_24",
      "alpha" : 1,
      "operation" : 33,
      "weights" : {

      },
      "fused_relu" : 0,
      "debug_info" : "sub_16",
      "nd_mode" : true,
      "top" : "sub_16",
      "type" : "elementwise",
      "name" : "sub_16",
      "beta" : 0
    },
    {
      "bottom" : "sub_16",
      "alpha" : 2,
      "operation" : 13,
      "weights" : {

      },
      "fused_relu" : 0,
      "debug_info" : "square_8",
      "top" : "square_8",
      "type" : "elementwise",
      "name" : "square_8",
      "beta" : 0
    },
    {
      "bottom" : "square_8",
      "weights" : {

      },
      "mode" : 1,
      "debug_info" : "reduce_mean_26",
      "use_version" : 1,
      "top" : "reduce_mean_26",
      "type" : "reduce",
      "name" : "reduce_mean_26"
    },
    {
      "bottom" : "reduce_mean_26",
      "alpha" : 9.9999997473787516e-06,
      "operation" : 0,
      "weights" : {

      },
      "fused_relu" : 0,
      "debug_info" : "add_16",
      "top" : "add_16",
      "type" : "elementwise",
      "name" : "add_16",
      "beta" : 0
    },
    {
      "bottom" : "add_16",
      "alpha" : 1,
      "operation" : 11,
      "weights" : {

      },
      "fused_relu" : 0,
      "debug_info" : "sqrt_8",
      "top" : "sqrt_8",
      "type" : "elementwise",
      "name" : "sqrt_8",
      "beta" : 0
    },
    {
      "bottom" : "sub_16,sqrt_8",
      "alpha" : 1,
      "operation" : 102,
      "weights" : {

      },
      "fused_relu" : 0,
      "debug_info" : "real_div_8",
      "nd_mode" : true,
      "top" : "real_div_8",
      "type" : "elementwise",
      "name" : "real_div_8",
      "beta" : 0
    },
    {
      "name" : "reshape_33",
      "weights" : {

      },
      "dst_w" : 64,
      "version" : 1,
      "dst_n" : 1,
      "dst_nd_rank" : 4,
      "type" : "reshape",
      "dst_h" : 64,
      "mode" : 0,
      "dynamic_shape" : false,
      "bottom" : "real_div_8",
      "debug_info" : "reshape_33",
      "dst_seq" : 1,
      "dst_k" : 256,
      "top" : "reshape_33"
    },
    {
      "name" : "add_17",
      "bottom" : "reshape_33",
      "weights" : {

      },
      "debug_info" : "add_17",
      "top" : "add_17",
      "C" : 256,
      "blob_batchnorm_params" : 37,
      "type" : "batchnorm"
    },
    {
      "pad_r" : 0,
      "fused_relu" : 0,
      "fused_tanh" : 0,
      "debug_info" : "input.71",
      "pad_fill_mode" : 0,
      "pad_b" : 0,
      "pad_l" : 0,
      "top" : "input.71",
      "blob_weights" : 39,
      "K" : 256,
      "name" : "input.71",
      "has_batch_norm" : 0,
      "type" : "convolution",
      "n_groups" : 1,
      "pad_t" : 0,
      "has_biases" : 0,
      "C" : 512,
      "bottom" : "add_17",
      "weights" : {

      },
      "Nx" : 1,
      "pad_mode" : 0,
      "pad_value" : 0,
      "Ny" : 1,
      "n_parallel" : 1
    },
    {
      "name" : "reshape_36",
      "weights" : {

      },
      "dst_w" : 64,
      "version" : 1,
      "dst_n" : 1,
      "dst_nd_rank" : 5,
      "type" : "reshape",
      "dst_h" : 64,
      "mode" : 0,
      "dynamic_shape" : false,
      "bottom" : "input.71",
      "debug_info" : "reshape_36",
      "dst_seq" : 1,
      "dst_k" : 512,
      "top" : "reshape_36"
    },
    {
      "bottom" : "reshape_36",
      "weights" : {

      },
      "mode" : 1,
      "debug_info" : "reduce_mean_27",
      "use_version" : 1,
      "top" : "reduce_mean_27",
      "type" : "reduce",
      "name" : "reduce_mean_27"
    },
    {
      "bottom" : "reshape_36,reduce_mean_27",
      "alpha" : 1,
      "operation" : 33,
      "weights" : {

      },
      "fused_relu" : 0,
      "debug_info" : "sub_18",
      "nd_mode" : true,
      "top" : "sub_18",
      "type" : "elementwise",
      "name" : "sub_18",
      "beta" : 0
    },
    {
      "bottom" : "sub_18",
      "alpha" : 2,
      "operation" : 13,
      "weights" : {

      },
      "fused_relu" : 0,
      "debug_info" : "square_9",
      "top" : "square_9",
      "type" : "elementwise",
      "name" : "square_9",
      "beta" : 0
    },
    {
      "bottom" : "square_9",
      "weights" : {

      },
      "mode" : 1,
      "debug_info" : "reduce_mean_29",
      "use_version" : 1,
      "top" : "reduce_mean_29",
      "type" : "reduce",
      "name" : "reduce_mean_29"
    },
    {
      "bottom" : "reduce_mean_29",
      "alpha" : 9.9999997473787516e-06,
      "operation" : 0,
      "weights" : {

      },
      "fused_relu" : 0,
      "debug_info" : "add_18",
      "top" : "add_18",
      "type" : "elementwise",
      "name" : "add_18",
      "beta" : 0
    },
    {
      "bottom" : "add_18",
      "alpha" : 1,
      "operation" : 11,
      "weights" : {

      },
      "fused_relu" : 0,
      "debug_info" : "sqrt_9",
      "top" : "sqrt_9",
      "type" : "elementwise",
      "name" : "sqrt_9",
      "beta" : 0
    },
    {
      "bottom" : "sub_18,sqrt_9",
      "alpha" : 1,
      "operation" : 102,
      "weights" : {

      },
      "fused_relu" : 0,
      "debug_info" : "real_div_9",
      "nd_mode" : true,
      "top" : "real_div_9",
      "type" : "elementwise",
      "name" : "real_div_9",
      "beta" : 0
    },
    {
      "name" : "reshape_37",
      "weights" : {

      },
      "dst_w" : 64,
      "version" : 1,
      "dst_n" : 1,
      "dst_nd_rank" : 4,
      "type" : "reshape",
      "dst_h" : 64,
      "mode" : 0,
      "dynamic_shape" : false,
      "bottom" : "real_div_9",
      "debug_info" : "reshape_37",
      "dst_seq" : 1,
      "dst_k" : 512,
      "top" : "reshape_37"
    },
    {
      "name" : "add_19",
      "bottom" : "reshape_37",
      "weights" : {

      },
      "debug_info" : "add_19",
      "top" : "add_19",
      "C" : 512,
      "blob_batchnorm_params" : 41,
      "type" : "batchnorm"
    },
    {
      "alpha" : 0.20000000298023224,
      "bottom" : "add_19",
      "weights" : {

      },
      "mode" : 2,
      "debug_info" : "input.75",
      "top" : "input.75",
      "type" : "activation",
      "name" : "input.75"
    },
    {
      "name" : "pad_9",
      "weights" : {

      },
      "pad_pad_mode" : 0,
      "pad_t" : 1,
      "pad_r" : 1,
      "pad_b" : 1,
      "type" : "general_padding",
      "pad_fill_mode" : 2,
      "bottom" : "input.75",
      "pad_l" : 1,
      "debug_info" : "pad_9",
      "pad_value" : 0,
      "top" : "pad_9"
    },
    {
      "pad_r" : 0,
      "fused_relu" : 0,
      "fused_tanh" : 0,
      "debug_info" : "input.79",
      "pad_fill_mode" : 0,
      "pad_b" : 0,
      "pad_l" : 0,
      "top" : "input.79",
      "blob_weights" : 45,
      "K" : 512,
      "blob_biases" : 43,
      "name" : "input.79",
      "has_batch_norm" : 0,
      "type" : "convolution",
      "n_groups" : 512,
      "pad_t" : 0,
      "has_biases" : 1,
      "C" : 512,
      "bottom" : "pad_9",
      "weights" : {

      },
      "Nx" : 3,
      "pad_mode" : 0,
      "pad_value" : 0,
      "Ny" : 3,
      "n_parallel" : 1
    },
    {
      "name" : "reshape_40",
      "weights" : {

      },
      "dst_w" : 64,
      "version" : 1,
      "dst_n" : 1,
      "dst_nd_rank" : 5,
      "type" : "reshape",
      "dst_h" : 64,
      "mode" : 0,
      "dynamic_shape" : false,
      "bottom" : "input.79",
      "debug_info" : "reshape_40",
      "dst_seq" : 1,
      "dst_k" : 512,
      "top" : "reshape_40"
    },
    {
      "bottom" : "reshape_40",
      "weights" : {

      },
      "mode" : 1,
      "debug_info" : "reduce_mean_30",
      "use_version" : 1,
      "top" : "reduce_mean_30",
      "type" : "reduce",
      "name" : "reduce_mean_30"
    },
    {
      "bottom" : "reshape_40,reduce_mean_30",
      "alpha" : 1,
      "operation" : 33,
      "weights" : {

      },
      "fused_relu" : 0,
      "debug_info" : "sub_20",
      "nd_mode" : true,
      "top" : "sub_20",
      "type" : "elementwise",
      "name" : "sub_20",
      "beta" : 0
    },
    {
      "bottom" : "sub_20",
      "alpha" : 2,
      "operation" : 13,
      "weights" : {

      },
      "fused_relu" : 0,
      "debug_info" : "square_10",
      "top" : "square_10",
      "type" : "elementwise",
      "name" : "square_10",
      "beta" : 0
    },
    {
      "bottom" : "square_10",
      "weights" : {

      },
      "mode" : 1,
      "debug_info" : "reduce_mean_32",
      "use_version" : 1,
      "top" : "reduce_mean_32",
      "type" : "reduce",
      "name" : "reduce_mean_32"
    },
    {
      "bottom" : "reduce_mean_32",
      "alpha" : 9.9999997473787516e-06,
      "operation" : 0,
      "weights" : {

      },
      "fused_relu" : 0,
      "debug_info" : "add_20",
      "top" : "add_20",
      "type" : "elementwise",
      "name" : "add_20",
      "beta" : 0
    },
    {
      "bottom" : "add_20",
      "alpha" : 1,
      "operation" : 11,
      "weights" : {

      },
      "fused_relu" : 0,
      "debug_info" : "sqrt_10",
      "top" : "sqrt_10",
      "type" : "elementwise",
      "name" : "sqrt_10",
      "beta" : 0
    },
    {
      "bottom" : "sub_20,sqrt_10",
      "alpha" : 1,
      "operation" : 102,
      "weights" : {

      },
      "fused_relu" : 0,
      "debug_info" : "real_div_10",
      "nd_mode" : true,
      "top" : "real_div_10",
      "type" : "elementwise",
      "name" : "real_div_10",
      "beta" : 0
    },
    {
      "name" : "reshape_41",
      "weights" : {

      },
      "dst_w" : 64,
      "version" : 1,
      "dst_n" : 1,
      "dst_nd_rank" : 4,
      "type" : "reshape",
      "dst_h" : 64,
      "mode" : 0,
      "dynamic_shape" : false,
      "bottom" : "real_div_10",
      "debug_info" : "reshape_41",
      "dst_seq" : 1,
      "dst_k" : 512,
      "top" : "reshape_41"
    },
    {
      "name" : "add_21",
      "bottom" : "reshape_41",
      "weights" : {

      },
      "debug_info" : "add_21",
      "top" : "add_21",
      "C" : 512,
      "blob_batchnorm_params" : 47,
      "type" : "batchnorm"
    },
    {
      "alpha" : 0.20000000298023224,
      "bottom" : "add_21",
      "weights" : {

      },
      "mode" : 2,
      "debug_info" : "input.83",
      "top" : "input.83",
      "type" : "activation",
      "name" : "input.83"
    },
    {
      "pad_r" : 0,
      "fused_relu" : 0,
      "fused_tanh" : 0,
      "debug_info" : "input.85",
      "pad_fill_mode" : 0,
      "pad_b" : 0,
      "pad_l" : 0,
      "top" : "input.85",
      "blob_weights" : 49,
      "K" : 512,
      "name" : "input.85",
      "has_batch_norm" : 0,
      "type" : "convolution",
      "n_groups" : 1,
      "pad_t" : 0,
      "has_biases" : 0,
      "C" : 256,
      "bottom" : "input.83",
      "weights" : {

      },
      "Nx" : 1,
      "pad_mode" : 0,
      "pad_value" : 0,
      "Ny" : 1,
      "n_parallel" : 1
    },
    {
      "name" : "reshape_44",
      "weights" : {

      },
      "dst_w" : 64,
      "version" : 1,
      "dst_n" : 1,
      "dst_nd_rank" : 5,
      "type" : "reshape",
      "dst_h" : 64,
      "mode" : 0,
      "dynamic_shape" : false,
      "bottom" : "input.85",
      "debug_info" : "reshape_44",
      "dst_seq" : 1,
      "dst_k" : 256,
      "top" : "reshape_44"
    },
    {
      "bottom" : "reshape_44",
      "weights" : {

      },
      "mode" : 1,
      "debug_info" : "reduce_mean_33",
      "use_version" : 1,
      "top" : "reduce_mean_33",
      "type" : "reduce",
      "name" : "reduce_mean_33"
    },
    {
      "bottom" : "reshape_44,reduce_mean_33",
      "alpha" : 1,
      "operation" : 33,
      "weights" : {

      },
      "fused_relu" : 0,
      "debug_info" : "sub_22",
      "nd_mode" : true,
      "top" : "sub_22",
      "type" : "elementwise",
      "name" : "sub_22",
      "beta" : 0
    },
    {
      "bottom" : "sub_22",
      "alpha" : 2,
      "operation" : 13,
      "weights" : {

      },
      "fused_relu" : 0,
      "debug_info" : "square_11",
      "top" : "square_11",
      "type" : "elementwise",
      "name" : "square_11",
      "beta" : 0
    },
    {
      "bottom" : "square_11",
      "weights" : {

      },
      "mode" : 1,
      "debug_info" : "reduce_mean_35",
      "use_version" : 1,
      "top" : "reduce_mean_35",
      "type" : "reduce",
      "name" : "reduce_mean_35"
    },
    {
      "bottom" : "reduce_mean_35",
      "alpha" : 9.9999997473787516e-06,
      "operation" : 0,
      "weights" : {

      },
      "fused_relu" : 0,
      "debug_info" : "add_22",
      "top" : "add_22",
      "type" : "elementwise",
      "name" : "add_22",
      "beta" : 0
    },
    {
      "bottom" : "add_22",
      "alpha" : 1,
      "operation" : 11,
      "weights" : {

      },
      "fused_relu" : 0,
      "debug_info" : "sqrt_11",
      "top" : "sqrt_11",
      "type" : "elementwise",
      "name" : "sqrt_11",
      "beta" : 0
    },
    {
      "bottom" : "sub_22,sqrt_11",
      "alpha" : 1,
      "operation" : 102,
      "weights" : {

      },
      "fused_relu" : 0,
      "debug_info" : "real_div_11",
      "nd_mode" : true,
      "top" : "real_div_11",
      "type" : "elementwise",
      "name" : "real_div_11",
      "beta" : 0
    },
    {
      "name" : "reshape_45",
      "weights" : {

      },
      "dst_w" : 64,
      "version" : 1,
      "dst_n" : 1,
      "dst_nd_rank" : 4,
      "type" : "reshape",
      "dst_h" : 64,
      "mode" : 0,
      "dynamic_shape" : false,
      "bottom" : "real_div_11",
      "debug_info" : "reshape_45",
      "dst_seq" : 1,
      "dst_k" : 256,
      "top" : "reshape_45"
    },
    {
      "name" : "add_23",
      "bottom" : "reshape_45",
      "weights" : {

      },
      "debug_info" : "add_23",
      "top" : "add_23",
      "C" : 256,
      "blob_batchnorm_params" : 51,
      "type" : "batchnorm"
    },
    {
      "bottom" : "add_17,add_23",
      "alpha" : 1,
      "operation" : 0,
      "weights" : {

      },
      "fused_relu" : 0,
      "debug_info" : "input.87",
      "top" : "input.87",
      "type" : "elementwise",
      "name" : "input.87",
      "beta" : 0
    },
    {
      "pad_r" : 0,
      "fused_relu" : 0,
      "fused_tanh" : 0,
      "debug_info" : "input.91",
      "pad_fill_mode" : 0,
      "pad_b" : 0,
      "pad_l" : 0,
      "top" : "input.91",
      "blob_weights" : 53,
      "K" : 256,
      "name" : "input.91",
      "has_batch_norm" : 0,
      "type" : "convolution",
      "n_groups" : 1,
      "pad_t" : 0,
      "has_biases" : 0,
      "C" : 512,
      "bottom" : "input.87",
      "weights" : {

      },
      "Nx" : 1,
      "pad_mode" : 0,
      "pad_value" : 0,
      "Ny" : 1,
      "n_parallel" : 1
    },
    {
      "name" : "reshape_48",
      "weights" : {

      },
      "dst_w" : 64,
      "version" : 1,
      "dst_n" : 1,
      "dst_nd_rank" : 5,
      "type" : "reshape",
      "dst_h" : 64,
      "mode" : 0,
      "dynamic_shape" : false,
      "bottom" : "input.91",
      "debug_info" : "reshape_48",
      "dst_seq" : 1,
      "dst_k" : 512,
      "top" : "reshape_48"
    },
    {
      "bottom" : "reshape_48",
      "weights" : {

      },
      "mode" : 1,
      "debug_info" : "reduce_mean_36",
      "use_version" : 1,
      "top" : "reduce_mean_36",
      "type" : "reduce",
      "name" : "reduce_mean_36"
    },
    {
      "bottom" : "reshape_48,reduce_mean_36",
      "alpha" : 1,
      "operation" : 33,
      "weights" : {

      },
      "fused_relu" : 0,
      "debug_info" : "sub_24",
      "nd_mode" : true,
      "top" : "sub_24",
      "type" : "elementwise",
      "name" : "sub_24",
      "beta" : 0
    },
    {
      "bottom" : "sub_24",
      "alpha" : 2,
      "operation" : 13,
      "weights" : {

      },
      "fused_relu" : 0,
      "debug_info" : "square_12",
      "top" : "square_12",
      "type" : "elementwise",
      "name" : "square_12",
      "beta" : 0
    },
    {
      "bottom" : "square_12",
      "weights" : {

      },
      "mode" : 1,
      "debug_info" : "reduce_mean_38",
      "use_version" : 1,
      "top" : "reduce_mean_38",
      "type" : "reduce",
      "name" : "reduce_mean_38"
    },
    {
      "bottom" : "reduce_mean_38",
      "alpha" : 9.9999997473787516e-06,
      "operation" : 0,
      "weights" : {

      },
      "fused_relu" : 0,
      "debug_info" : "add_24",
      "top" : "add_24",
      "type" : "elementwise",
      "name" : "add_24",
      "beta" : 0
    },
    {
      "bottom" : "add_24",
      "alpha" : 1,
      "operation" : 11,
      "weights" : {

      },
      "fused_relu" : 0,
      "debug_info" : "sqrt_12",
      "top" : "sqrt_12",
      "type" : "elementwise",
      "name" : "sqrt_12",
      "beta" : 0
    },
    {
      "bottom" : "sub_24,sqrt_12",
      "alpha" : 1,
      "operation" : 102,
      "weights" : {

      },
      "fused_relu" : 0,
      "debug_info" : "real_div_12",
      "nd_mode" : true,
      "top" : "real_div_12",
      "type" : "elementwise",
      "name" : "real_div_12",
      "beta" : 0
    },
    {
      "name" : "reshape_49",
      "weights" : {

      },
      "dst_w" : 64,
      "version" : 1,
      "dst_n" : 1,
      "dst_nd_rank" : 4,
      "type" : "reshape",
      "dst_h" : 64,
      "mode" : 0,
      "dynamic_shape" : false,
      "bottom" : "real_div_12",
      "debug_info" : "reshape_49",
      "dst_seq" : 1,
      "dst_k" : 512,
      "top" : "reshape_49"
    },
    {
      "name" : "add_25",
      "bottom" : "reshape_49",
      "weights" : {

      },
      "debug_info" : "add_25",
      "top" : "add_25",
      "C" : 512,
      "blob_batchnorm_params" : 55,
      "type" : "batchnorm"
    },
    {
      "alpha" : 0.20000000298023224,
      "bottom" : "add_25",
      "weights" : {

      },
      "mode" : 2,
      "debug_info" : "input.95",
      "top" : "input.95",
      "type" : "activation",
      "name" : "input.95"
    },
    {
      "name" : "pad_11",
      "weights" : {

      },
      "pad_pad_mode" : 0,
      "pad_t" : 1,
      "pad_r" : 1,
      "pad_b" : 1,
      "type" : "general_padding",
      "pad_fill_mode" : 2,
      "bottom" : "input.95",
      "pad_l" : 1,
      "debug_info" : "pad_11",
      "pad_value" : 0,
      "top" : "pad_11"
    },
    {
      "pad_r" : 0,
      "fused_relu" : 0,
      "fused_tanh" : 0,
      "debug_info" : "input.99",
      "pad_fill_mode" : 0,
      "pad_b" : 0,
      "pad_l" : 0,
      "top" : "input.99",
      "blob_weights" : 59,
      "K" : 512,
      "blob_biases" : 57,
      "name" : "input.99",
      "has_batch_norm" : 0,
      "type" : "convolution",
      "n_groups" : 512,
      "pad_t" : 0,
      "has_biases" : 1,
      "C" : 512,
      "bottom" : "pad_11",
      "weights" : {

      },
      "Nx" : 3,
      "pad_mode" : 0,
      "pad_value" : 0,
      "Ny" : 3,
      "n_parallel" : 1
    },
    {
      "name" : "reshape_52",
      "weights" : {

      },
      "dst_w" : 64,
      "version" : 1,
      "dst_n" : 1,
      "dst_nd_rank" : 5,
      "type" : "reshape",
      "dst_h" : 64,
      "mode" : 0,
      "dynamic_shape" : false,
      "bottom" : "input.99",
      "debug_info" : "reshape_52",
      "dst_seq" : 1,
      "dst_k" : 512,
      "top" : "reshape_52"
    },
    {
      "bottom" : "reshape_52",
      "weights" : {

      },
      "mode" : 1,
      "debug_info" : "reduce_mean_39",
      "use_version" : 1,
      "top" : "reduce_mean_39",
      "type" : "reduce",
      "name" : "reduce_mean_39"
    },
    {
      "bottom" : "reshape_52,reduce_mean_39",
      "alpha" : 1,
      "operation" : 33,
      "weights" : {

      },
      "fused_relu" : 0,
      "debug_info" : "sub_26",
      "nd_mode" : true,
      "top" : "sub_26",
      "type" : "elementwise",
      "name" : "sub_26",
      "beta" : 0
    },
    {
      "bottom" : "sub_26",
      "alpha" : 2,
      "operation" : 13,
      "weights" : {

      },
      "fused_relu" : 0,
      "debug_info" : "square_13",
      "top" : "square_13",
      "type" : "elementwise",
      "name" : "square_13",
      "beta" : 0
    },
    {
      "bottom" : "square_13",
      "weights" : {

      },
      "mode" : 1,
      "debug_info" : "reduce_mean_41",
      "use_version" : 1,
      "top" : "reduce_mean_41",
      "type" : "reduce",
      "name" : "reduce_mean_41"
    },
    {
      "bottom" : "reduce_mean_41",
      "alpha" : 9.9999997473787516e-06,
      "operation" : 0,
      "weights" : {

      },
      "fused_relu" : 0,
      "debug_info" : "add_26",
      "top" : "add_26",
      "type" : "elementwise",
      "name" : "add_26",
      "beta" : 0
    },
    {
      "bottom" : "add_26",
      "alpha" : 1,
      "operation" : 11,
      "weights" : {

      },
      "fused_relu" : 0,
      "debug_info" : "sqrt_13",
      "top" : "sqrt_13",
      "type" : "elementwise",
      "name" : "sqrt_13",
      "beta" : 0
    },
    {
      "bottom" : "sub_26,sqrt_13",
      "alpha" : 1,
      "operation" : 102,
      "weights" : {

      },
      "fused_relu" : 0,
      "debug_info" : "real_div_13",
      "nd_mode" : true,
      "top" : "real_div_13",
      "type" : "elementwise",
      "name" : "real_div_13",
      "beta" : 0
    },
    {
      "name" : "reshape_53",
      "weights" : {

      },
      "dst_w" : 64,
      "version" : 1,
      "dst_n" : 1,
      "dst_nd_rank" : 4,
      "type" : "reshape",
      "dst_h" : 64,
      "mode" : 0,
      "dynamic_shape" : false,
      "bottom" : "real_div_13",
      "debug_info" : "reshape_53",
      "dst_seq" : 1,
      "dst_k" : 512,
      "top" : "reshape_53"
    },
    {
      "name" : "add_27",
      "bottom" : "reshape_53",
      "weights" : {

      },
      "debug_info" : "add_27",
      "top" : "add_27",
      "C" : 512,
      "blob_batchnorm_params" : 61,
      "type" : "batchnorm"
    },
    {
      "alpha" : 0.20000000298023224,
      "bottom" : "add_27",
      "weights" : {

      },
      "mode" : 2,
      "debug_info" : "input.103",
      "top" : "input.103",
      "type" : "activation",
      "name" : "input.103"
    },
    {
      "pad_r" : 0,
      "fused_relu" : 0,
      "fused_tanh" : 0,
      "debug_info" : "input.105",
      "pad_fill_mode" : 0,
      "pad_b" : 0,
      "pad_l" : 0,
      "top" : "input.105",
      "blob_weights" : 63,
      "K" : 512,
      "name" : "input.105",
      "has_batch_norm" : 0,
      "type" : "convolution",
      "n_groups" : 1,
      "pad_t" : 0,
      "has_biases" : 0,
      "C" : 256,
      "bottom" : "input.103",
      "weights" : {

      },
      "Nx" : 1,
      "pad_mode" : 0,
      "pad_value" : 0,
      "Ny" : 1,
      "n_parallel" : 1
    },
    {
      "name" : "reshape_56",
      "weights" : {

      },
      "dst_w" : 64,
      "version" : 1,
      "dst_n" : 1,
      "dst_nd_rank" : 5,
      "type" : "reshape",
      "dst_h" : 64,
      "mode" : 0,
      "dynamic_shape" : false,
      "bottom" : "input.105",
      "debug_info" : "reshape_56",
      "dst_seq" : 1,
      "dst_k" : 256,
      "top" : "reshape_56"
    },
    {
      "bottom" : "reshape_56",
      "weights" : {

      },
      "mode" : 1,
      "debug_info" : "reduce_mean_42",
      "use_version" : 1,
      "top" : "reduce_mean_42",
      "type" : "reduce",
      "name" : "reduce_mean_42"
    },
    {
      "bottom" : "reshape_56,reduce_mean_42",
      "alpha" : 1,
      "operation" : 33,
      "weights" : {

      },
      "fused_relu" : 0,
      "debug_info" : "sub_28",
      "nd_mode" : true,
      "top" : "sub_28",
      "type" : "elementwise",
      "name" : "sub_28",
      "beta" : 0
    },
    {
      "bottom" : "sub_28",
      "alpha" : 2,
      "operation" : 13,
      "weights" : {

      },
      "fused_relu" : 0,
      "debug_info" : "square_14",
      "top" : "square_14",
      "type" : "elementwise",
      "name" : "square_14",
      "beta" : 0
    },
    {
      "bottom" : "square_14",
      "weights" : {

      },
      "mode" : 1,
      "debug_info" : "reduce_mean_44",
      "use_version" : 1,
      "top" : "reduce_mean_44",
      "type" : "reduce",
      "name" : "reduce_mean_44"
    },
    {
      "bottom" : "reduce_mean_44",
      "alpha" : 9.9999997473787516e-06,
      "operation" : 0,
      "weights" : {

      },
      "fused_relu" : 0,
      "debug_info" : "add_28",
      "top" : "add_28",
      "type" : "elementwise",
      "name" : "add_28",
      "beta" : 0
    },
    {
      "bottom" : "add_28",
      "alpha" : 1,
      "operation" : 11,
      "weights" : {

      },
      "fused_relu" : 0,
      "debug_info" : "sqrt_14",
      "top" : "sqrt_14",
      "type" : "elementwise",
      "name" : "sqrt_14",
      "beta" : 0
    },
    {
      "bottom" : "sub_28,sqrt_14",
      "alpha" : 1,
      "operation" : 102,
      "weights" : {

      },
      "fused_relu" : 0,
      "debug_info" : "real_div_14",
      "nd_mode" : true,
      "top" : "real_div_14",
      "type" : "elementwise",
      "name" : "real_div_14",
      "beta" : 0
    },
    {
      "name" : "reshape_57",
      "weights" : {

      },
      "dst_w" : 64,
      "version" : 1,
      "dst_n" : 1,
      "dst_nd_rank" : 4,
      "type" : "reshape",
      "dst_h" : 64,
      "mode" : 0,
      "dynamic_shape" : false,
      "bottom" : "real_div_14",
      "debug_info" : "reshape_57",
      "dst_seq" : 1,
      "dst_k" : 256,
      "top" : "reshape_57"
    },
    {
      "name" : "add_29",
      "bottom" : "reshape_57",
      "weights" : {

      },
      "debug_info" : "add_29",
      "top" : "add_29",
      "C" : 256,
      "blob_batchnorm_params" : 65,
      "type" : "batchnorm"
    },
    {
      "bottom" : "input.87,add_29",
      "alpha" : 1,
      "operation" : 0,
      "weights" : {

      },
      "fused_relu" : 0,
      "debug_info" : "input.107",
      "top" : "input.107",
      "type" : "elementwise",
      "name" : "input.107",
      "beta" : 0
    },
    {
      "pad_r" : 0,
      "fused_relu" : 0,
      "fused_tanh" : 0,
      "debug_info" : "input.111",
      "pad_fill_mode" : 0,
      "pad_b" : 0,
      "pad_l" : 0,
      "top" : "input.111",
      "blob_weights" : 67,
      "K" : 256,
      "name" : "input.111",
      "has_batch_norm" : 0,
      "type" : "convolution",
      "n_groups" : 1,
      "pad_t" : 0,
      "has_biases" : 0,
      "C" : 512,
      "bottom" : "input.107",
      "weights" : {

      },
      "Nx" : 1,
      "pad_mode" : 0,
      "pad_value" : 0,
      "Ny" : 1,
      "n_parallel" : 1
    },
    {
      "name" : "reshape_60",
      "weights" : {

      },
      "dst_w" : 64,
      "version" : 1,
      "dst_n" : 1,
      "dst_nd_rank" : 5,
      "type" : "reshape",
      "dst_h" : 64,
      "mode" : 0,
      "dynamic_shape" : false,
      "bottom" : "input.111",
      "debug_info" : "reshape_60",
      "dst_seq" : 1,
      "dst_k" : 512,
      "top" : "reshape_60"
    },
    {
      "bottom" : "reshape_60",
      "weights" : {

      },
      "mode" : 1,
      "debug_info" : "reduce_mean_45",
      "use_version" : 1,
      "top" : "reduce_mean_45",
      "type" : "reduce",
      "name" : "reduce_mean_45"
    },
    {
      "bottom" : "reshape_60,reduce_mean_45",
      "alpha" : 1,
      "operation" : 33,
      "weights" : {

      },
      "fused_relu" : 0,
      "debug_info" : "sub_30",
      "nd_mode" : true,
      "top" : "sub_30",
      "type" : "elementwise",
      "name" : "sub_30",
      "beta" : 0
    },
    {
      "bottom" : "sub_30",
      "alpha" : 2,
      "operation" : 13,
      "weights" : {

      },
      "fused_relu" : 0,
      "debug_info" : "square_15",
      "top" : "square_15",
      "type" : "elementwise",
      "name" : "square_15",
      "beta" : 0
    },
    {
      "bottom" : "square_15",
      "weights" : {

      },
      "mode" : 1,
      "debug_info" : "reduce_mean_47",
      "use_version" : 1,
      "top" : "reduce_mean_47",
      "type" : "reduce",
      "name" : "reduce_mean_47"
    },
    {
      "bottom" : "reduce_mean_47",
      "alpha" : 9.9999997473787516e-06,
      "operation" : 0,
      "weights" : {

      },
      "fused_relu" : 0,
      "debug_info" : "add_30",
      "top" : "add_30",
      "type" : "elementwise",
      "name" : "add_30",
      "beta" : 0
    },
    {
      "bottom" : "add_30",
      "alpha" : 1,
      "operation" : 11,
      "weights" : {

      },
      "fused_relu" : 0,
      "debug_info" : "sqrt_15",
      "top" : "sqrt_15",
      "type" : "elementwise",
      "name" : "sqrt_15",
      "beta" : 0
    },
    {
      "bottom" : "sub_30,sqrt_15",
      "alpha" : 1,
      "operation" : 102,
      "weights" : {

      },
      "fused_relu" : 0,
      "debug_info" : "real_div_15",
      "nd_mode" : true,
      "top" : "real_div_15",
      "type" : "elementwise",
      "name" : "real_div_15",
      "beta" : 0
    },
    {
      "name" : "reshape_61",
      "weights" : {

      },
      "dst_w" : 64,
      "version" : 1,
      "dst_n" : 1,
      "dst_nd_rank" : 4,
      "type" : "reshape",
      "dst_h" : 64,
      "mode" : 0,
      "dynamic_shape" : false,
      "bottom" : "real_div_15",
      "debug_info" : "reshape_61",
      "dst_seq" : 1,
      "dst_k" : 512,
      "top" : "reshape_61"
    },
    {
      "name" : "add_31",
      "bottom" : "reshape_61",
      "weights" : {

      },
      "debug_info" : "add_31",
      "top" : "add_31",
      "C" : 512,
      "blob_batchnorm_params" : 69,
      "type" : "batchnorm"
    },
    {
      "alpha" : 0.20000000298023224,
      "bottom" : "add_31",
      "weights" : {

      },
      "mode" : 2,
      "debug_info" : "input.115",
      "top" : "input.115",
      "type" : "activation",
      "name" : "input.115"
    },
    {
      "name" : "pad_13",
      "weights" : {

      },
      "pad_pad_mode" : 0,
      "pad_t" : 1,
      "pad_r" : 1,
      "pad_b" : 1,
      "type" : "general_padding",
      "pad_fill_mode" : 2,
      "bottom" : "input.115",
      "pad_l" : 1,
      "debug_info" : "pad_13",
      "pad_value" : 0,
      "top" : "pad_13"
    },
    {
      "pad_r" : 0,
      "fused_relu" : 0,
      "fused_tanh" : 0,
      "debug_info" : "input.119",
      "pad_fill_mode" : 0,
      "pad_b" : 0,
      "pad_l" : 0,
      "top" : "input.119",
      "blob_weights" : 73,
      "K" : 512,
      "blob_biases" : 71,
      "name" : "input.119",
      "has_batch_norm" : 0,
      "type" : "convolution",
      "n_groups" : 512,
      "pad_t" : 0,
      "has_biases" : 1,
      "C" : 512,
      "bottom" : "pad_13",
      "weights" : {

      },
      "Nx" : 3,
      "pad_mode" : 0,
      "pad_value" : 0,
      "Ny" : 3,
      "n_parallel" : 1
    },
    {
      "name" : "reshape_64",
      "weights" : {

      },
      "dst_w" : 64,
      "version" : 1,
      "dst_n" : 1,
      "dst_nd_rank" : 5,
      "type" : "reshape",
      "dst_h" : 64,
      "mode" : 0,
      "dynamic_shape" : false,
      "bottom" : "input.119",
      "debug_info" : "reshape_64",
      "dst_seq" : 1,
      "dst_k" : 512,
      "top" : "reshape_64"
    },
    {
      "bottom" : "reshape_64",
      "weights" : {

      },
      "mode" : 1,
      "debug_info" : "reduce_mean_48",
      "use_version" : 1,
      "top" : "reduce_mean_48",
      "type" : "reduce",
      "name" : "reduce_mean_48"
    },
    {
      "bottom" : "reshape_64,reduce_mean_48",
      "alpha" : 1,
      "operation" : 33,
      "weights" : {

      },
      "fused_relu" : 0,
      "debug_info" : "sub_32",
      "nd_mode" : true,
      "top" : "sub_32",
      "type" : "elementwise",
      "name" : "sub_32",
      "beta" : 0
    },
    {
      "bottom" : "sub_32",
      "alpha" : 2,
      "operation" : 13,
      "weights" : {

      },
      "fused_relu" : 0,
      "debug_info" : "square_16",
      "top" : "square_16",
      "type" : "elementwise",
      "name" : "square_16",
      "beta" : 0
    },
    {
      "bottom" : "square_16",
      "weights" : {

      },
      "mode" : 1,
      "debug_info" : "reduce_mean_50",
      "use_version" : 1,
      "top" : "reduce_mean_50",
      "type" : "reduce",
      "name" : "reduce_mean_50"
    },
    {
      "bottom" : "reduce_mean_50",
      "alpha" : 9.9999997473787516e-06,
      "operation" : 0,
      "weights" : {

      },
      "fused_relu" : 0,
      "debug_info" : "add_32",
      "top" : "add_32",
      "type" : "elementwise",
      "name" : "add_32",
      "beta" : 0
    },
    {
      "bottom" : "add_32",
      "alpha" : 1,
      "operation" : 11,
      "weights" : {

      },
      "fused_relu" : 0,
      "debug_info" : "sqrt_16",
      "top" : "sqrt_16",
      "type" : "elementwise",
      "name" : "sqrt_16",
      "beta" : 0
    },
    {
      "bottom" : "sub_32,sqrt_16",
      "alpha" : 1,
      "operation" : 102,
      "weights" : {

      },
      "fused_relu" : 0,
      "debug_info" : "real_div_16",
      "nd_mode" : true,
      "top" : "real_div_16",
      "type" : "elementwise",
      "name" : "real_div_16",
      "beta" : 0
    },
    {
      "name" : "reshape_65",
      "weights" : {

      },
      "dst_w" : 64,
      "version" : 1,
      "dst_n" : 1,
      "dst_nd_rank" : 4,
      "type" : "reshape",
      "dst_h" : 64,
      "mode" : 0,
      "dynamic_shape" : false,
      "bottom" : "real_div_16",
      "debug_info" : "reshape_65",
      "dst_seq" : 1,
      "dst_k" : 512,
      "top" : "reshape_65"
    },
    {
      "name" : "add_33",
      "bottom" : "reshape_65",
      "weights" : {

      },
      "debug_info" : "add_33",
      "top" : "add_33",
      "C" : 512,
      "blob_batchnorm_params" : 75,
      "type" : "batchnorm"
    },
    {
      "alpha" : 0.20000000298023224,
      "bottom" : "add_33",
      "weights" : {

      },
      "mode" : 2,
      "debug_info" : "input.123",
      "top" : "input.123",
      "type" : "activation",
      "name" : "input.123"
    },
    {
      "pad_r" : 0,
      "fused_relu" : 0,
      "fused_tanh" : 0,
      "debug_info" : "input.125",
      "pad_fill_mode" : 0,
      "pad_b" : 0,
      "pad_l" : 0,
      "top" : "input.125",
      "blob_weights" : 77,
      "K" : 512,
      "name" : "input.125",
      "has_batch_norm" : 0,
      "type" : "convolution",
      "n_groups" : 1,
      "pad_t" : 0,
      "has_biases" : 0,
      "C" : 256,
      "bottom" : "input.123",
      "weights" : {

      },
      "Nx" : 1,
      "pad_mode" : 0,
      "pad_value" : 0,
      "Ny" : 1,
      "n_parallel" : 1
    },
    {
      "name" : "reshape_68",
      "weights" : {

      },
      "dst_w" : 64,
      "version" : 1,
      "dst_n" : 1,
      "dst_nd_rank" : 5,
      "type" : "reshape",
      "dst_h" : 64,
      "mode" : 0,
      "dynamic_shape" : false,
      "bottom" : "input.125",
      "debug_info" : "reshape_68",
      "dst_seq" : 1,
      "dst_k" : 256,
      "top" : "reshape_68"
    },
    {
      "bottom" : "reshape_68",
      "weights" : {

      },
      "mode" : 1,
      "debug_info" : "reduce_mean_51",
      "use_version" : 1,
      "top" : "reduce_mean_51",
      "type" : "reduce",
      "name" : "reduce_mean_51"
    },
    {
      "bottom" : "reshape_68,reduce_mean_51",
      "alpha" : 1,
      "operation" : 33,
      "weights" : {

      },
      "fused_relu" : 0,
      "debug_info" : "sub_34",
      "nd_mode" : true,
      "top" : "sub_34",
      "type" : "elementwise",
      "name" : "sub_34",
      "beta" : 0
    },
    {
      "bottom" : "sub_34",
      "alpha" : 2,
      "operation" : 13,
      "weights" : {

      },
      "fused_relu" : 0,
      "debug_info" : "square_17",
      "top" : "square_17",
      "type" : "elementwise",
      "name" : "square_17",
      "beta" : 0
    },
    {
      "bottom" : "square_17",
      "weights" : {

      },
      "mode" : 1,
      "debug_info" : "reduce_mean_53",
      "use_version" : 1,
      "top" : "reduce_mean_53",
      "type" : "reduce",
      "name" : "reduce_mean_53"
    },
    {
      "bottom" : "reduce_mean_53",
      "alpha" : 9.9999997473787516e-06,
      "operation" : 0,
      "weights" : {

      },
      "fused_relu" : 0,
      "debug_info" : "add_34",
      "top" : "add_34",
      "type" : "elementwise",
      "name" : "add_34",
      "beta" : 0
    },
    {
      "bottom" : "add_34",
      "alpha" : 1,
      "operation" : 11,
      "weights" : {

      },
      "fused_relu" : 0,
      "debug_info" : "sqrt_17",
      "top" : "sqrt_17",
      "type" : "elementwise",
      "name" : "sqrt_17",
      "beta" : 0
    },
    {
      "bottom" : "sub_34,sqrt_17",
      "alpha" : 1,
      "operation" : 102,
      "weights" : {

      },
      "fused_relu" : 0,
      "debug_info" : "real_div_17",
      "nd_mode" : true,
      "top" : "real_div_17",
      "type" : "elementwise",
      "name" : "real_div_17",
      "beta" : 0
    },
    {
      "name" : "reshape_69",
      "weights" : {

      },
      "dst_w" : 64,
      "version" : 1,
      "dst_n" : 1,
      "dst_nd_rank" : 4,
      "type" : "reshape",
      "dst_h" : 64,
      "mode" : 0,
      "dynamic_shape" : false,
      "bottom" : "real_div_17",
      "debug_info" : "reshape_69",
      "dst_seq" : 1,
      "dst_k" : 256,
      "top" : "reshape_69"
    },
    {
      "name" : "add_35",
      "bottom" : "reshape_69",
      "weights" : {

      },
      "debug_info" : "add_35",
      "top" : "add_35",
      "C" : 256,
      "blob_batchnorm_params" : 79,
      "type" : "batchnorm"
    },
    {
      "bottom" : "input.107,add_35",
      "alpha" : 1,
      "operation" : 0,
      "weights" : {

      },
      "fused_relu" : 0,
      "debug_info" : "input.127",
      "top" : "input.127",
      "type" : "elementwise",
      "name" : "input.127",
      "beta" : 0
    },
    {
      "name" : "pad_14",
      "weights" : {

      },
      "pad_pad_mode" : 0,
      "pad_t" : 1,
      "pad_r" : 1,
      "pad_b" : 1,
      "type" : "general_padding",
      "pad_fill_mode" : 2,
      "bottom" : "input.127",
      "pad_l" : 1,
      "debug_info" : "pad_14",
      "pad_value" : 0,
      "top" : "pad_14"
    },
    {
      "pad_r" : 0,
      "fused_relu" : 0,
      "fused_tanh" : 0,
      "debug_info" : "input.131",
      "pad_fill_mode" : 0,
      "pad_b" : 0,
      "pad_l" : 0,
      "top" : "input.131",
      "blob_weights" : 81,
      "K" : 256,
      "name" : "input.131",
      "has_batch_norm" : 0,
      "type" : "convolution",
      "n_groups" : 1,
      "pad_t" : 0,
      "has_biases" : 0,
      "C" : 128,
      "bottom" : "pad_14",
      "weights" : {

      },
      "Nx" : 3,
      "pad_mode" : 0,
      "pad_value" : 0,
      "Ny" : 3,
      "n_parallel" : 1
    },
    {
      "name" : "reshape_72",
      "weights" : {

      },
      "dst_w" : 64,
      "version" : 1,
      "dst_n" : 1,
      "dst_nd_rank" : 5,
      "type" : "reshape",
      "dst_h" : 64,
      "mode" : 0,
      "dynamic_shape" : false,
      "bottom" : "input.131",
      "debug_info" : "reshape_72",
      "dst_seq" : 1,
      "dst_k" : 128,
      "top" : "reshape_72"
    },
    {
      "bottom" : "reshape_72",
      "weights" : {

      },
      "mode" : 1,
      "debug_info" : "reduce_mean_54",
      "use_version" : 1,
      "top" : "reduce_mean_54",
      "type" : "reduce",
      "name" : "reduce_mean_54"
    },
    {
      "bottom" : "reshape_72,reduce_mean_54",
      "alpha" : 1,
      "operation" : 33,
      "weights" : {

      },
      "fused_relu" : 0,
      "debug_info" : "sub_36",
      "nd_mode" : true,
      "top" : "sub_36",
      "type" : "elementwise",
      "name" : "sub_36",
      "beta" : 0
    },
    {
      "bottom" : "sub_36",
      "alpha" : 2,
      "operation" : 13,
      "weights" : {

      },
      "fused_relu" : 0,
      "debug_info" : "square_18",
      "top" : "square_18",
      "type" : "elementwise",
      "name" : "square_18",
      "beta" : 0
    },
    {
      "bottom" : "square_18",
      "weights" : {

      },
      "mode" : 1,
      "debug_info" : "reduce_mean_56",
      "use_version" : 1,
      "top" : "reduce_mean_56",
      "type" : "reduce",
      "name" : "reduce_mean_56"
    },
    {
      "bottom" : "reduce_mean_56",
      "alpha" : 9.9999997473787516e-06,
      "operation" : 0,
      "weights" : {

      },
      "fused_relu" : 0,
      "debug_info" : "add_36",
      "top" : "add_36",
      "type" : "elementwise",
      "name" : "add_36",
      "beta" : 0
    },
    {
      "bottom" : "add_36",
      "alpha" : 1,
      "operation" : 11,
      "weights" : {

      },
      "fused_relu" : 0,
      "debug_info" : "sqrt_18",
      "top" : "sqrt_18",
      "type" : "elementwise",
      "name" : "sqrt_18",
      "beta" : 0
    },
    {
      "bottom" : "sub_36,sqrt_18",
      "alpha" : 1,
      "operation" : 102,
      "weights" : {

      },
      "fused_relu" : 0,
      "debug_info" : "real_div_18",
      "nd_mode" : true,
      "top" : "real_div_18",
      "type" : "elementwise",
      "name" : "real_div_18",
      "beta" : 0
    },
    {
      "name" : "reshape_73",
      "weights" : {

      },
      "dst_w" : 64,
      "version" : 1,
      "dst_n" : 1,
      "dst_nd_rank" : 4,
      "type" : "reshape",
      "dst_h" : 64,
      "mode" : 0,
      "dynamic_shape" : false,
      "bottom" : "real_div_18",
      "debug_info" : "reshape_73",
      "dst_seq" : 1,
      "dst_k" : 128,
      "top" : "reshape_73"
    },
    {
      "name" : "add_37",
      "bottom" : "reshape_73",
      "weights" : {

      },
      "debug_info" : "add_37",
      "top" : "add_37",
      "C" : 128,
      "blob_batchnorm_params" : 83,
      "type" : "batchnorm"
    },
    {
      "alpha" : 0.20000000298023224,
      "bottom" : "add_37",
      "weights" : {

      },
      "mode" : 2,
      "debug_info" : "input.135",
      "top" : "input.135",
      "type" : "activation",
      "name" : "input.135"
    },
    {
      "top" : "input.137",
      "use_fractional_scale_factors" : false,
      "weights" : {

      },
      "fractional_scaling_factor_y" : 1,
      "type" : "upsample",
      "scaling_factor_x" : 2,
      "mode" : 1,
      "align_corners" : 1,
      "bottom" : "input.135",
      "debug_info" : "input.137",
      "fractional_scaling_factor_x" : 1,
      "is_legacy_mode" : 0,
      "name" : "input.137",
      "scaling_factor_y" : 2
    },
    {
      "name" : "pad_15",
      "weights" : {

      },
      "pad_pad_mode" : 0,
      "pad_t" : 1,
      "pad_r" : 1,
      "pad_b" : 1,
      "type" : "general_padding",
      "pad_fill_mode" : 2,
      "bottom" : "input.137",
      "pad_l" : 1,
      "debug_info" : "pad_15",
      "pad_value" : 0,
      "top" : "pad_15"
    },
    {
      "pad_r" : 0,
      "fused_relu" : 0,
      "fused_tanh" : 0,
      "debug_info" : "input.141",
      "pad_fill_mode" : 0,
      "pad_b" : 0,
      "pad_l" : 0,
      "top" : "input.141",
      "blob_weights" : 85,
      "K" : 128,
      "name" : "input.141",
      "has_batch_norm" : 0,
      "type" : "convolution",
      "n_groups" : 1,
      "pad_t" : 0,
      "has_biases" : 0,
      "C" : 128,
      "bottom" : "pad_15",
      "weights" : {

      },
      "Nx" : 3,
      "pad_mode" : 0,
      "pad_value" : 0,
      "Ny" : 3,
      "n_parallel" : 1
    },
    {
      "name" : "reshape_76",
      "weights" : {

      },
      "dst_w" : 128,
      "version" : 1,
      "dst_n" : 1,
      "dst_nd_rank" : 5,
      "type" : "reshape",
      "dst_h" : 128,
      "mode" : 0,
      "dynamic_shape" : false,
      "bottom" : "input.141",
      "debug_info" : "reshape_76",
      "dst_seq" : 1,
      "dst_k" : 128,
      "top" : "reshape_76"
    },
    {
      "bottom" : "reshape_76",
      "weights" : {

      },
      "mode" : 1,
      "debug_info" : "reduce_mean_57",
      "use_version" : 1,
      "top" : "reduce_mean_57",
      "type" : "reduce",
      "name" : "reduce_mean_57"
    },
    {
      "bottom" : "reshape_76,reduce_mean_57",
      "alpha" : 1,
      "operation" : 33,
      "weights" : {

      },
      "fused_relu" : 0,
      "debug_info" : "sub_38",
      "nd_mode" : true,
      "top" : "sub_38",
      "type" : "elementwise",
      "name" : "sub_38",
      "beta" : 0
    },
    {
      "bottom" : "sub_38",
      "alpha" : 2,
      "operation" : 13,
      "weights" : {

      },
      "fused_relu" : 0,
      "debug_info" : "square_19",
      "top" : "square_19",
      "type" : "elementwise",
      "name" : "square_19",
      "beta" : 0
    },
    {
      "bottom" : "square_19",
      "weights" : {

      },
      "mode" : 1,
      "debug_info" : "reduce_mean_59",
      "use_version" : 1,
      "top" : "reduce_mean_59",
      "type" : "reduce",
      "name" : "reduce_mean_59"
    },
    {
      "bottom" : "reduce_mean_59",
      "alpha" : 9.9999997473787516e-06,
      "operation" : 0,
      "weights" : {

      },
      "fused_relu" : 0,
      "debug_info" : "add_38",
      "top" : "add_38",
      "type" : "elementwise",
      "name" : "add_38",
      "beta" : 0
    },
    {
      "bottom" : "add_38",
      "alpha" : 1,
      "operation" : 11,
      "weights" : {

      },
      "fused_relu" : 0,
      "debug_info" : "sqrt_19",
      "top" : "sqrt_19",
      "type" : "elementwise",
      "name" : "sqrt_19",
      "beta" : 0
    },
    {
      "bottom" : "sub_38,sqrt_19",
      "alpha" : 1,
      "operation" : 102,
      "weights" : {

      },
      "fused_relu" : 0,
      "debug_info" : "real_div_19",
      "nd_mode" : true,
      "top" : "real_div_19",
      "type" : "elementwise",
      "name" : "real_div_19",
      "beta" : 0
    },
    {
      "name" : "reshape_77",
      "weights" : {

      },
      "dst_w" : 128,
      "version" : 1,
      "dst_n" : 1,
      "dst_nd_rank" : 4,
      "type" : "reshape",
      "dst_h" : 128,
      "mode" : 0,
      "dynamic_shape" : false,
      "bottom" : "real_div_19",
      "debug_info" : "reshape_77",
      "dst_seq" : 1,
      "dst_k" : 128,
      "top" : "reshape_77"
    },
    {
      "name" : "add_39",
      "bottom" : "reshape_77",
      "weights" : {

      },
      "debug_info" : "add_39",
      "top" : "add_39",
      "C" : 128,
      "blob_batchnorm_params" : 87,
      "type" : "batchnorm"
    },
    {
      "alpha" : 0.20000000298023224,
      "bottom" : "add_39",
      "weights" : {

      },
      "mode" : 2,
      "debug_info" : "input.145",
      "top" : "input.145",
      "type" : "activation",
      "name" : "input.145"
    },
    {
      "name" : "pad_16",
      "weights" : {

      },
      "pad_pad_mode" : 0,
      "pad_t" : 1,
      "pad_r" : 1,
      "pad_b" : 1,
      "type" : "general_padding",
      "pad_fill_mode" : 2,
      "bottom" : "input.145",
      "pad_l" : 1,
      "debug_info" : "pad_16",
      "pad_value" : 0,
      "top" : "pad_16"
    },
    {
      "pad_r" : 0,
      "fused_relu" : 0,
      "fused_tanh" : 0,
      "debug_info" : "input.149",
      "pad_fill_mode" : 0,
      "pad_b" : 0,
      "pad_l" : 0,
      "top" : "input.149",
      "blob_weights" : 89,
      "K" : 128,
      "name" : "input.149",
      "has_batch_norm" : 0,
      "type" : "convolution",
      "n_groups" : 1,
      "pad_t" : 0,
      "has_biases" : 0,
      "C" : 128,
      "bottom" : "pad_16",
      "weights" : {

      },
      "Nx" : 3,
      "pad_mode" : 0,
      "pad_value" : 0,
      "Ny" : 3,
      "n_parallel" : 1
    },
    {
      "name" : "reshape_80",
      "weights" : {

      },
      "dst_w" : 128,
      "version" : 1,
      "dst_n" : 1,
      "dst_nd_rank" : 5,
      "type" : "reshape",
      "dst_h" : 128,
      "mode" : 0,
      "dynamic_shape" : false,
      "bottom" : "input.149",
      "debug_info" : "reshape_80",
      "dst_seq" : 1,
      "dst_k" : 128,
      "top" : "reshape_80"
    },
    {
      "bottom" : "reshape_80",
      "weights" : {

      },
      "mode" : 1,
      "debug_info" : "reduce_mean_60",
      "use_version" : 1,
      "top" : "reduce_mean_60",
      "type" : "reduce",
      "name" : "reduce_mean_60"
    },
    {
      "bottom" : "reshape_80,reduce_mean_60",
      "alpha" : 1,
      "operation" : 33,
      "weights" : {

      },
      "fused_relu" : 0,
      "debug_info" : "sub_40",
      "nd_mode" : true,
      "top" : "sub_40",
      "type" : "elementwise",
      "name" : "sub_40",
      "beta" : 0
    },
    {
      "bottom" : "sub_40",
      "alpha" : 2,
      "operation" : 13,
      "weights" : {

      },
      "fused_relu" : 0,
      "debug_info" : "square_20",
      "top" : "square_20",
      "type" : "elementwise",
      "name" : "square_20",
      "beta" : 0
    },
    {
      "bottom" : "square_20",
      "weights" : {

      },
      "mode" : 1,
      "debug_info" : "reduce_mean_62",
      "use_version" : 1,
      "top" : "reduce_mean_62",
      "type" : "reduce",
      "name" : "reduce_mean_62"
    },
    {
      "bottom" : "reduce_mean_62",
      "alpha" : 9.9999997473787516e-06,
      "operation" : 0,
      "weights" : {

      },
      "fused_relu" : 0,
      "debug_info" : "add_40",
      "top" : "add_40",
      "type" : "elementwise",
      "name" : "add_40",
      "beta" : 0
    },
    {
      "bottom" : "add_40",
      "alpha" : 1,
      "operation" : 11,
      "weights" : {

      },
      "fused_relu" : 0,
      "debug_info" : "sqrt_20",
      "top" : "sqrt_20",
      "type" : "elementwise",
      "name" : "sqrt_20",
      "beta" : 0
    },
    {
      "bottom" : "sub_40,sqrt_20",
      "alpha" : 1,
      "operation" : 102,
      "weights" : {

      },
      "fused_relu" : 0,
      "debug_info" : "real_div_20",
      "nd_mode" : true,
      "top" : "real_div_20",
      "type" : "elementwise",
      "name" : "real_div_20",
      "beta" : 0
    },
    {
      "name" : "reshape_81",
      "weights" : {

      },
      "dst_w" : 128,
      "version" : 1,
      "dst_n" : 1,
      "dst_nd_rank" : 4,
      "type" : "reshape",
      "dst_h" : 128,
      "mode" : 0,
      "dynamic_shape" : false,
      "bottom" : "real_div_20",
      "debug_info" : "reshape_81",
      "dst_seq" : 1,
      "dst_k" : 128,
      "top" : "reshape_81"
    },
    {
      "name" : "add_41",
      "bottom" : "reshape_81",
      "weights" : {

      },
      "debug_info" : "add_41",
      "top" : "add_41",
      "C" : 128,
      "blob_batchnorm_params" : 91,
      "type" : "batchnorm"
    },
    {
      "alpha" : 0.20000000298023224,
      "bottom" : "add_41",
      "weights" : {

      },
      "mode" : 2,
      "debug_info" : "input.153",
      "top" : "input.153",
      "type" : "activation",
      "name" : "input.153"
    },
    {
      "top" : "input.155",
      "use_fractional_scale_factors" : false,
      "weights" : {

      },
      "fractional_scaling_factor_y" : 1,
      "type" : "upsample",
      "scaling_factor_x" : 2,
      "mode" : 1,
      "align_corners" : 1,
      "bottom" : "input.153",
      "debug_info" : "input.155",
      "fractional_scaling_factor_x" : 1,
      "is_legacy_mode" : 0,
      "name" : "input.155",
      "scaling_factor_y" : 2
    },
    {
      "name" : "pad_17",
      "weights" : {

      },
      "pad_pad_mode" : 0,
      "pad_t" : 1,
      "pad_r" : 1,
      "pad_b" : 1,
      "type" : "general_padding",
      "pad_fill_mode" : 2,
      "bottom" : "input.155",
      "pad_l" : 1,
      "debug_info" : "pad_17",
      "pad_value" : 0,
      "top" : "pad_17"
    },
    {
      "pad_r" : 0,
      "fused_relu" : 0,
      "fused_tanh" : 0,
      "debug_info" : "input.159",
      "pad_fill_mode" : 0,
      "pad_b" : 0,
      "pad_l" : 0,
      "top" : "input.159",
      "blob_weights" : 93,
      "K" : 128,
      "name" : "input.159",
      "has_batch_norm" : 0,
      "type" : "convolution",
      "n_groups" : 1,
      "pad_t" : 0,
      "has_biases" : 0,
      "C" : 64,
      "bottom" : "pad_17",
      "weights" : {

      },
      "Nx" : 3,
      "pad_mode" : 0,
      "pad_value" : 0,
      "Ny" : 3,
      "n_parallel" : 1
    },
    {
      "name" : "reshape_84",
      "weights" : {

      },
      "dst_w" : 256,
      "version" : 1,
      "dst_n" : 1,
      "dst_nd_rank" : 5,
      "type" : "reshape",
      "dst_h" : 256,
      "mode" : 0,
      "dynamic_shape" : false,
      "bottom" : "input.159",
      "debug_info" : "reshape_84",
      "dst_seq" : 1,
      "dst_k" : 64,
      "top" : "reshape_84"
    },
    {
      "bottom" : "reshape_84",
      "weights" : {

      },
      "mode" : 1,
      "debug_info" : "reduce_mean_63",
      "use_version" : 1,
      "top" : "reduce_mean_63",
      "type" : "reduce",
      "name" : "reduce_mean_63"
    },
    {
      "bottom" : "reshape_84,reduce_mean_63",
      "alpha" : 1,
      "operation" : 33,
      "weights" : {

      },
      "fused_relu" : 0,
      "debug_info" : "sub_42",
      "nd_mode" : true,
      "top" : "sub_42",
      "type" : "elementwise",
      "name" : "sub_42",
      "beta" : 0
    },
    {
      "bottom" : "sub_42",
      "alpha" : 2,
      "operation" : 13,
      "weights" : {

      },
      "fused_relu" : 0,
      "debug_info" : "square_21",
      "top" : "square_21",
      "type" : "elementwise",
      "name" : "square_21",
      "beta" : 0
    },
    {
      "bottom" : "square_21",
      "weights" : {

      },
      "mode" : 1,
      "debug_info" : "reduce_mean_65",
      "use_version" : 1,
      "top" : "reduce_mean_65",
      "type" : "reduce",
      "name" : "reduce_mean_65"
    },
    {
      "bottom" : "reduce_mean_65",
      "alpha" : 9.9999997473787516e-06,
      "operation" : 0,
      "weights" : {

      },
      "fused_relu" : 0,
      "debug_info" : "add_42",
      "top" : "add_42",
      "type" : "elementwise",
      "name" : "add_42",
      "beta" : 0
    },
    {
      "bottom" : "add_42",
      "alpha" : 1,
      "operation" : 11,
      "weights" : {

      },
      "fused_relu" : 0,
      "debug_info" : "sqrt_21",
      "top" : "sqrt_21",
      "type" : "elementwise",
      "name" : "sqrt_21",
      "beta" : 0
    },
    {
      "bottom" : "sub_42,sqrt_21",
      "alpha" : 1,
      "operation" : 102,
      "weights" : {

      },
      "fused_relu" : 0,
      "debug_info" : "real_div_21",
      "nd_mode" : true,
      "top" : "real_div_21",
      "type" : "elementwise",
      "name" : "real_div_21",
      "beta" : 0
    },
    {
      "name" : "reshape_85",
      "weights" : {

      },
      "dst_w" : 256,
      "version" : 1,
      "dst_n" : 1,
      "dst_nd_rank" : 4,
      "type" : "reshape",
      "dst_h" : 256,
      "mode" : 0,
      "dynamic_shape" : false,
      "bottom" : "real_div_21",
      "debug_info" : "reshape_85",
      "dst_seq" : 1,
      "dst_k" : 64,
      "top" : "reshape_85"
    },
    {
      "name" : "add_43",
      "bottom" : "reshape_85",
      "weights" : {

      },
      "debug_info" : "add_43",
      "top" : "add_43",
      "C" : 64,
      "blob_batchnorm_params" : 95,
      "type" : "batchnorm"
    },
    {
      "alpha" : 0.20000000298023224,
      "bottom" : "add_43",
      "weights" : {

      },
      "mode" : 2,
      "debug_info" : "input.163",
      "top" : "input.163",
      "type" : "activation",
      "name" : "input.163"
    },
    {
      "name" : "pad_18",
      "weights" : {

      },
      "pad_pad_mode" : 0,
      "pad_t" : 1,
      "pad_r" : 1,
      "pad_b" : 1,
      "type" : "general_padding",
      "pad_fill_mode" : 2,
      "bottom" : "input.163",
      "pad_l" : 1,
      "debug_info" : "pad_18",
      "pad_value" : 0,
      "top" : "pad_18"
    },
    {
      "pad_r" : 0,
      "fused_relu" : 0,
      "fused_tanh" : 0,
      "debug_info" : "input.167",
      "pad_fill_mode" : 0,
      "pad_b" : 0,
      "pad_l" : 0,
      "top" : "input.167",
      "blob_weights" : 97,
      "K" : 64,
      "name" : "input.167",
      "has_batch_norm" : 0,
      "type" : "convolution",
      "n_groups" : 1,
      "pad_t" : 0,
      "has_biases" : 0,
      "C" : 64,
      "bottom" : "pad_18",
      "weights" : {

      },
      "Nx" : 3,
      "pad_mode" : 0,
      "pad_value" : 0,
      "Ny" : 3,
      "n_parallel" : 1
    },
    {
      "name" : "reshape_88",
      "weights" : {

      },
      "dst_w" : 256,
      "version" : 1,
      "dst_n" : 1,
      "dst_nd_rank" : 5,
      "type" : "reshape",
      "dst_h" : 256,
      "mode" : 0,
      "dynamic_shape" : false,
      "bottom" : "input.167",
      "debug_info" : "reshape_88",
      "dst_seq" : 1,
      "dst_k" : 64,
      "top" : "reshape_88"
    },
    {
      "bottom" : "reshape_88",
      "weights" : {

      },
      "mode" : 1,
      "debug_info" : "reduce_mean_66",
      "use_version" : 1,
      "top" : "reduce_mean_66",
      "type" : "reduce",
      "name" : "reduce_mean_66"
    },
    {
      "bottom" : "reshape_88,reduce_mean_66",
      "alpha" : 1,
      "operation" : 33,
      "weights" : {

      },
      "fused_relu" : 0,
      "debug_info" : "sub_44",
      "nd_mode" : true,
      "top" : "sub_44",
      "type" : "elementwise",
      "name" : "sub_44",
      "beta" : 0
    },
    {
      "bottom" : "sub_44",
      "alpha" : 2,
      "operation" : 13,
      "weights" : {

      },
      "fused_relu" : 0,
      "debug_info" : "square_22",
      "top" : "square_22",
      "type" : "elementwise",
      "name" : "square_22",
      "beta" : 0
    },
    {
      "bottom" : "square_22",
      "weights" : {

      },
      "mode" : 1,
      "debug_info" : "reduce_mean_68",
      "use_version" : 1,
      "top" : "reduce_mean_68",
      "type" : "reduce",
      "name" : "reduce_mean_68"
    },
    {
      "bottom" : "reduce_mean_68",
      "alpha" : 9.9999997473787516e-06,
      "operation" : 0,
      "weights" : {

      },
      "fused_relu" : 0,
      "debug_info" : "add_44",
      "top" : "add_44",
      "type" : "elementwise",
      "name" : "add_44",
      "beta" : 0
    },
    {
      "bottom" : "add_44",
      "alpha" : 1,
      "operation" : 11,
      "weights" : {

      },
      "fused_relu" : 0,
      "debug_info" : "sqrt_22",
      "top" : "sqrt_22",
      "type" : "elementwise",
      "name" : "sqrt_22",
      "beta" : 0
    },
    {
      "bottom" : "sub_44,sqrt_22",
      "alpha" : 1,
      "operation" : 102,
      "weights" : {

      },
      "fused_relu" : 0,
      "debug_info" : "real_div_22",
      "nd_mode" : true,
      "top" : "real_div_22",
      "type" : "elementwise",
      "name" : "real_div_22",
      "beta" : 0
    },
    {
      "name" : "reshape_89",
      "weights" : {

      },
      "dst_w" : 256,
      "version" : 1,
      "dst_n" : 1,
      "dst_nd_rank" : 4,
      "type" : "reshape",
      "dst_h" : 256,
      "mode" : 0,
      "dynamic_shape" : false,
      "bottom" : "real_div_22",
      "debug_info" : "reshape_89",
      "dst_seq" : 1,
      "dst_k" : 64,
      "top" : "reshape_89"
    },
    {
      "name" : "add_45",
      "bottom" : "reshape_89",
      "weights" : {

      },
      "debug_info" : "add_45",
      "top" : "add_45",
      "C" : 64,
      "blob_batchnorm_params" : 99,
      "type" : "batchnorm"
    },
    {
      "alpha" : 0.20000000298023224,
      "bottom" : "add_45",
      "weights" : {

      },
      "mode" : 2,
      "debug_info" : "input.171",
      "top" : "input.171",
      "type" : "activation",
      "name" : "input.171"
    },
    {
      "name" : "pad_19",
      "weights" : {

      },
      "pad_pad_mode" : 0,
      "pad_t" : 3,
      "pad_r" : 3,
      "pad_b" : 3,
      "type" : "general_padding",
      "pad_fill_mode" : 2,
      "bottom" : "input.171",
      "pad_l" : 3,
      "debug_info" : "pad_19",
      "pad_value" : 0,
      "top" : "pad_19"
    },
    {
      "pad_r" : 0,
      "fused_relu" : 0,
      "fused_tanh" : 0,
      "debug_info" : "input.175",
      "pad_fill_mode" : 0,
      "pad_b" : 0,
      "pad_l" : 0,
      "top" : "input.175",
      "blob_weights" : 101,
      "K" : 64,
      "name" : "input.175",
      "has_batch_norm" : 0,
      "type" : "convolution",
      "n_groups" : 1,
      "pad_t" : 0,
      "has_biases" : 0,
      "C" : 32,
      "bottom" : "pad_19",
      "weights" : {

      },
      "Nx" : 7,
      "pad_mode" : 0,
      "pad_value" : 0,
      "Ny" : 7,
      "n_parallel" : 1
    },
    {
      "name" : "reshape_92",
      "weights" : {

      },
      "dst_w" : 256,
      "version" : 1,
      "dst_n" : 1,
      "dst_nd_rank" : 5,
      "type" : "reshape",
      "dst_h" : 256,
      "mode" : 0,
      "dynamic_shape" : false,
      "bottom" : "input.175",
      "debug_info" : "reshape_92",
      "dst_seq" : 1,
      "dst_k" : 32,
      "top" : "reshape_92"
    },
    {
      "bottom" : "reshape_92",
      "weights" : {

      },
      "mode" : 1,
      "debug_info" : "reduce_mean_69",
      "use_version" : 1,
      "top" : "reduce_mean_69",
      "type" : "reduce",
      "name" : "reduce_mean_69"
    },
    {
      "bottom" : "reshape_92,reduce_mean_69",
      "alpha" : 1,
      "operation" : 33,
      "weights" : {

      },
      "fused_relu" : 0,
      "debug_info" : "sub_46",
      "nd_mode" : true,
      "top" : "sub_46",
      "type" : "elementwise",
      "name" : "sub_46",
      "beta" : 0
    },
    {
      "bottom" : "sub_46",
      "alpha" : 2,
      "operation" : 13,
      "weights" : {

      },
      "fused_relu" : 0,
      "debug_info" : "square_23",
      "top" : "square_23",
      "type" : "elementwise",
      "name" : "square_23",
      "beta" : 0
    },
    {
      "bottom" : "square_23",
      "weights" : {

      },
      "mode" : 1,
      "debug_info" : "reduce_mean_71",
      "use_version" : 1,
      "top" : "reduce_mean_71",
      "type" : "reduce",
      "name" : "reduce_mean_71"
    },
    {
      "bottom" : "reduce_mean_71",
      "alpha" : 9.9999997473787516e-06,
      "operation" : 0,
      "weights" : {

      },
      "fused_relu" : 0,
      "debug_info" : "add_46",
      "top" : "add_46",
      "type" : "elementwise",
      "name" : "add_46",
      "beta" : 0
    },
    {
      "bottom" : "add_46",
      "alpha" : 1,
      "operation" : 11,
      "weights" : {

      },
      "fused_relu" : 0,
      "debug_info" : "sqrt_23",
      "top" : "sqrt_23",
      "type" : "elementwise",
      "name" : "sqrt_23",
      "beta" : 0
    },
    {
      "bottom" : "sub_46,sqrt_23",
      "alpha" : 1,
      "operation" : 102,
      "weights" : {

      },
      "fused_relu" : 0,
      "debug_info" : "real_div_23",
      "nd_mode" : true,
      "top" : "real_div_23",
      "type" : "elementwise",
      "name" : "real_div_23",
      "beta" : 0
    },
    {
      "name" : "reshape_93",
      "weights" : {

      },
      "dst_w" : 256,
      "version" : 1,
      "dst_n" : 1,
      "dst_nd_rank" : 4,
      "type" : "reshape",
      "dst_h" : 256,
      "mode" : 0,
      "dynamic_shape" : false,
      "bottom" : "real_div_23",
      "debug_info" : "reshape_93",
      "dst_seq" : 1,
      "dst_k" : 32,
      "top" : "reshape_93"
    },
    {
      "name" : "add_47",
      "bottom" : "reshape_93",
      "weights" : {

      },
      "debug_info" : "add_47",
      "top" : "add_47",
      "C" : 32,
      "blob_batchnorm_params" : 103,
      "type" : "batchnorm"
    },
    {
      "alpha" : 0.20000000298023224,
      "bottom" : "add_47",
      "weights" : {

      },
      "mode" : 2,
      "debug_info" : "input.179",
      "top" : "input.179",
      "type" : "activation",
      "name" : "input.179"
    },
    {
      "pad_r" : 0,
      "fused_relu" : 0,
      "fused_tanh" : 1,
      "debug_info" : "input_1",
      "pad_fill_mode" : 0,
      "pad_b" : 0,
      "pad_l" : 0,
      "top" : "var_444",
      "blob_weights" : 105,
      "K" : 32,
      "name" : "input_1",
      "has_batch_norm" : 0,
      "type" : "convolution",
      "n_groups" : 1,
      "pad_t" : 0,
      "has_biases" : 0,
      "C" : 3,
      "bottom" : "input.179",
      "weights" : {

      },
      "Nx" : 1,
      "pad_mode" : 0,
      "pad_value" : 0,
      "Ny" : 1,
      "n_parallel" : 1
    },
    {
      "size_of_axes" : 0,
      "bottom" : "var_444",
      "weights" : {

      },
      "nd_axis" : 0,
      "debug_info" : "squeeze",
      "version" : 1,
      "top" : "squeeze_out",
      "type" : "squeeze",
      "name" : "squeeze",
      "squeeze_all" : true
    },
    {
      "bottom" : "squeeze_out",
      "alpha" : 127.5,
      "beta" : 127.5,
      "mode" : 6,
      "weights" : {

      },
      "debug_info" : "activation",
      "top" : "activation_out",
      "type" : "activation",
      "name" : "activation",
      "attributes" : {
        "is_output" : 1
      }
    }
  ],
  "transform_params" : {
    "input" : {
      "bias_a" : 0,
      "bias_g" : -1,
      "bias_r" : -1,
      "bias_b" : -1,
      "center_mean" : 0,
      "is_network_bgr" : 0,
      "scale" : 0.0078431377187371254
    }
  },
  "storage" : "model.espresso.weights",
  "metadata_in_weights" : [

  ],
  "properties" : {

  },
  "analyses" : {

  },
  "format_version" : 200
}